ex1_LeNet5/lenet5_bnFalse_dpFalse_wdFalse_weights.pth (torch, 250555 bytes, 10 tensors)

conv1.weight f4 [6, 1, 5, 5]
0	0x3ed38ad6	0.4131686
1	0xbf7d1f43	-0.98875827
2	0x3e1d7b53	0.15379076
3	0xbf5e94c8	-0.8694577
4	0xbe5c1f7e	-0.21496388
5	0xbff84e2d	-1.9398857
6	0xc089f7c0	-4.311493
7	0xc0697e96	-3.6483512
8	0xbfa52119	-1.2900726
9	0x3fc42505	1.5323797
10	0xbe43f08b	-0.19134729
11	0xc01e9808	-2.4780293
12	0xc05ea3a2	-3.4787374
13	0xbeb1567c	-0.34636295
14	0x3eea8369	0.45803383
15	0x3f6f3690	0.9344263
16	0x3f36d8c9	0.7142454
17	0x3ead117e	0.33802408
18	0xbc9bfd09	-0.019041555
19	0xbef4310c	-0.4769367
20	0x3ed594ec	0.4171518
21	0xbe1ba49f	-0.15199517
22	0xbe9ec927	-0.31012842
23	0x3f00500c	0.5012214
24	0xba8dcc2b	-0.0010818293
25	0xc01ea8f5	-2.4790623
26	0xbeecce1e	-0.46251005
27	0x3bb980fc	0.005661128
28	0x3f501ccf	0.8129396
29	0x3f95b295	1.1695124
30	0x3f6d791b	0.9276292
31	0x3f938d30	1.1527462
32	0xbdc1575f	-0.09440493
33	0x3f812c7e	1.0091703
34	0x3e1fdf0f	0.15612434
35	0x3fb6317f	1.4233855
36	0xbe5710ac	-0.21002454
37	0xbf42bd73	-0.76070327
38	0xbed3d982	-0.41376883
39	0x3f8a2fce	1.0795839
40	0xbf78bac2	-0.9715997
41	0x3d84b6da	0.06480189
42	0x3f1c5acb	0.6107604
43	0x3d6494dd	0.05580603
44	0x3f64f5a5	0.89437324
45	0xbf059d71	-0.5219336
46	0xbf1ecae6	-0.6202835
47	0xbe653f41	-0.2238741
48	0xbe12f0a8	-0.14349616
49	0x3ebe34e9	0.37149742
50	0x3f789f98	0.9711852
51	0xbed1ba28	-0.40962338
52	0x3efc18ac	0.49237573
53	0xbf545045	-0.8293498
54	0xc02b0638	-2.6722546
55	0xbf50632b	-0.8140132
56	0x3e9d7db5	0.3075997
57	0x40035fa8	2.0527134
58	0x3f0b8525	0.5450004
59	0xbfdc355e	-1.7203786
60	0xbf329e56	-0.6977285
61	0x3fa1ac1f	1.2630652
62	0xbf48ad06	-0.7838901
63	0xbe0756ec	-0.13216752
64	0x3e8e59b2	0.27802807
65	0x3e9171cb	0.2840713
66	0x3e5f11c0	0.21784115
67	0x3d016d12	0.03159816
68	0xbe5ca52a	-0.2154738
69	0x3ee6977a	0.45037442
70	0xbe060012	-0.13085964
71	0xbe679d43	-0.22618584
72	0xbf091aae	-0.53556335
73	0xbd5b24f3	-0.053502034
74	0x3f09c331	0.53813463
75	0x3f61f30a	0.88261473
76	0x3f2a6d5f	0.6657314
77	0x3e8d8ef6	0.27648133
78	0x3ef4418a	0.47706252
79	0xbe28ee93	-0.16497259
80	0x3f25dbd8	0.6478858
81	0xbe210013	-0.15722685
82	0xbe0cb38f	-0.13740371
83	0x3f03dc93	0.51508445
84	0xbe962189	-0.2932246
85	0x3f16dee9	0.58933884
86	0xbe8cc74e	-0.27495807
87	0xbfeae3b5	-1.8350741
88	0x3f601c7e	0.87543476
89	0xbe06c232	-0.13160017
90	0xbe04c6dc	-0.12966484
91	0xbf3c38b0	-0.73524
92	0xbfd6d7a6	-1.6784561
93	0x3f82fd1a	1.023349
94	0x3febcb0f	1.8421344
95	0x3eb4b466	0.35293883
96	0xbea13f6b	-0.31493697
97	0xbf243848	-0.6414838
98	0xbf7b688c	-0.982064
99	0x3f05a982	0.52211773
100	0xbed30d8a	-0.41221267
101	0xbf0ea812	-0.55725205
102	0x3f95fcad	1.1717736
103	0xbe2fd440	-0.1717081
104	0xbf7a3682	-0.9773942
105	0x3e004a19	0.12528266
106	0x3f3e3c01	0.7431031
107	0x3f9a0f50	1.2035923
108	0xbf571ac1	-0.840252
109	0xbf5c4ccb	-0.86054677
110	0x3fc7a6cf	1.5597781
111	0x3f9beb61	1.2181207
112	0x3f0bff88	0.54686785
113	0x3da1644f	0.078804605
114	0xbea7434a	-0.32668525
115	0xbf978a9d	-1.1839176
116	0xc00701a9	-2.1094763
117	0xbf08e69b	-0.53476876
118	0x3fd2783a	1.644294
119	0x3fa5e563	1.2960628
120	0xbed5cc31	-0.41757348
121	0xbf528b1b	-0.8224351
122	0xc0149165	-2.3213742
123	0xbd8655ac	-0.06559309
124	0x3efdc1af	0.4956183
125	0x3dbdeb87	0.09273439
126	0xbea7b713	-0.32756862
127	0xbf0d2c20	-0.55145454
128	0x3eae74c5	0.34073463
129	0x3f18854f	0.5957841
130	0xbeccd4c8	-0.4000609
131	0x3e6cccc3	0.23124985
132	0xbdb5cb99	-0.08876724
133	0xbe71101e	-0.23541304
134	0x3f339741	0.7015267
135	0xbe8039f8	-0.25044227
136	0x3f34de9f	0.7065219
137	0x3f358d9e	0.70919216
138	0xc030ef50	-2.7646065
139	0x3fc26604	1.5187383
140	0xbe57f6ca	-0.21090236
141	0x3e5a5d95	0.21324761
142	0x3fe5e671	1.796095
143	0xc02e485d	-2.7231667
144	0x3f622be4	0.8834822
145	0x3f30a900	0.69007874
146	0xbeea7816	-0.45794743
147	0x3ea71ab0	0.32637548
148	0xbe4ccff7	-0.20001207
149	0xbbdec329	-0.0067981672

conv1.bias f4 [6]
0	0xc14dd321	-12.864045
1	0xc01d1627	-2.454477
2	0xc0017f0b	-2.023379
3	0xc012cd58	-2.2937832
4	0xbff22d55	-1.8920084
5	0xbed621b0	-0.41822577

conv2.weight f4 [16, 6, 5, 5]
0	0xbf9ba5b2	-1.2159941
1	0xbf845665	-1.0338866
2	0xbf040c26	-0.5158104
3	0xbf1265c8	-0.57186556
4	0xbf340dc9	-0.70333534
5	0xbf1f1843	-0.62146395
6	0xbe93945c	-0.28824127
7	0x3da43c08	0.080192626
8	0xbe3e3e3f	-0.18578433
9	0x3d3628ee	0.044472627
10	0xbef74955	-0.48298135
11	0x3db00f62	0.08596684
12	0xba15883c	-0.00057041994
13	0xbe832fe9	-0.2562249
14	0x3ee98845	0.45611778
15	0xbf283805	-0.6571048
16	0x3e4d9cca	0.20079342
17	0x3e4c7524	0.1996656
18	0x3d34d692	0.044149943
19	0x3e81c428	0.25344968
20	0xbf723f18	-0.94627523
21	0x3f3565b5	0.7085832
22	0xbf03b2a9	-0.5144449
23	0xbf80279b	-1.0012087
24	0xbf05e6a0	-0.5230503
25	0xbeaaeef8	-0.33385444
26	0xbf205c29	-0.62640625
27	0x3ea0be7c	0.31395328
28	0x3e26f075	0.16302665
29	0xbe45f486	-0.1933156
30	0x3d092756	0.03348478
31	0xbedaf0fb	-0.42761979
32	0x3e002fd4	0.12518245
33	0x3c9b3680	0.018946886
34	0xbceae784	-0.028674848
35	0xbf0d646d	-0.5523136
36	0xbebdd9f1	-0.3708034
37	0x3e45917e	0.19293782
38	0x3d0d5870	0.03450817
39	0x3e804e26	0.25059623
40	0xbf24341d	-0.6414202
41	0xbdf99d17	-0.12188166
42	0xbc2114ec	-0.009831648
43	0xbe3a048f	-0.18165801
44	0x3ea39712	0.31951195
45	0xbf38acd3	-0.7213871
46	0x3acee1d4	0.0015783855
47	0x3f31ed40	0.6950264
48	0x3d4aa410	0.04947287
49	0x3e2b9b84	0.16758543
50	0xbea6b85c	-0.3256253
51	0x3f0c573f	0.54820627
52	0xbf1094ab	-0.5647685
53	0x3e8f0435	0.27932897
54	0x3f8193ef	1.0123271
55	0x3daccf30	0.084379554
56	0x3ec4fc0b	0.38473544
57	0xbe5bb0c0	-0.21454144
58	0x3e68b01c	0.2272343
59	0x3f3a9324	0.7288077
60	0x3ed37e49	0.41307285
61	0x3dd1263f	0.10212373
62	0xbe064d50	-0.1311543
63	0xbe106ed7	-0.14104782
64	0xbf666da1	-0.9001103
65	0x3e1c2e18	0.15251958
66	0x3dfc66ae	0.12324272
67	0xbe8abf28	-0.27098966
68	0x3ea951f2	0.33070332
69	0xbf067935	-0.525287
70	0x3ee16230	0.44020224
71	0x3e728b4c	0.2368595
72	0x3e5b88a6	0.21438846
73	0x3e11236b	0.14173667
74	0xbf3bddf3	-0.7338554
75	0xbe21eeea	-0.15813795
76	0xbe75b0da	-0.23993245
77	0xbe1d8af7	-0.15385042
78	0xbe1c0351	-0.1523564
79	0xbe81c205	-0.25343338
80	0xbee2d0b2	-0.44299847
81	0xbc18c27e	-0.009323714
82	0xbc3b9c35	-0.011450817
83	0x3e4ba130	0.19885707
84	0xbedf79cb	-0.43647608
85	0x3f0cbace	0.5497254
86	0xbeaf241f	-0.34207246
87	0xbddc3152	-0.107515946
88	0x3dbcb3d4	0.09213987
89	0x3e8206a4	0.2539569
90	0x3f81405d	1.0097767
91	0x3dc81db0	0.097712874
92	0xbdfd79a2	-0.12376715
93	0xbb8e62bd	-0.0043452666
94	0x3cf4d7ab	0.029887995
95	0x3d808059	0.062744804
96	0x3f20224f	0.6255235
97	0xbee7c245	-0.45265403
98	0xbec03185	-0.3753778
99	0xbe7247d2	-0.2366021
100	0xbe8d774d	-0.27630082
101	0x3de1a0a3	0.11016967
102	0x3e102ce6	0.14079627
103	0x3eacd0ab	0.3375295
104	0x3d8d9e7a	0.06914993
105	0x3e710cf6	0.235401
106	0xbde3f283	-0.1113024
107	0xbeb14f29	-0.34630707
108	0x3eda2e6e	0.42613548
109	0xbee23d89	-0.44187573
110	0x3e9c7242	0.30555922
111	0xbea327e2	-0.31866366
112	0x3e3715ab	0.1787936
113	0x3eecec85	0.462742
114	0x3d5a1d25	0.05325045
115	0xbdb253f8	-0.08707422
116	0x3e0fda62	0.1404815
117	0xbf0b9662	-0.5452634
118	0x3e1f1a17	0.15537296
119	0xbd402dc5	-0.04691865
120	0xbeedc4c6	-0.4643919
121	0x3f88b7d7	1.0681103
122	0xbe0e4bfe	-0.13896176
123	0x3ec613fe	0.38687128
124	0x3e99159d	0.29899302
125	0x3e2a1621	0.16610004
126	0xbe99f843	-0.3007222
127	0xbf1581ce	-0.5840119
128	0xbee6cc11	-0.45077565
129	0xbead667c	-0.33867252
130	0xbd8020ea	-0.06256278
131	0xbf12342c	-0.5711086
132	0xbec40143	-0.38282213
133	0xbf323957	-0.69618744
134	0xbd68bf36	-0.056822978
135	0x3cf2688c	0.029590867
136	0xbcc941c2	-0.024567489
137	0xbe20c4f4	-0.15700132
138	0x3d78b54a	0.060719766
139	0x3f00c9d3	0.5030796
140	0x3f3608e5	0.7110732
141	0x3ecd5f5a	0.4011181
142	0xbd881f24	-0.066465646
143	0x3e915e53	0.28392276
144	0x3ed28153	0.41114292
145	0x3f44abf6	0.7682489
146	0xbf0646aa	-0.52451575
147	0xbed91be5	-0.42404094
148	0xbe24dd88	-0.16100132
149	0xbec350fa	-0.38147718
150	0xbecfa6d8	-0.4055698
151	0xbfca3423	-1.5797161
152	0xbfa4a5cb	-1.2863096
153	0xbfeb5e33	-1.8388122
154	0xbe47db2a	-0.19517198
155	0x3ed46dc8	0.41490006
156	0xbf8eb420	-1.114872
157	0xbf81aa08	-1.0130014
158	0xbe36326a	-0.17792669
159	0x3f82a591	1.0206777
160	0xbf1231f6	-0.57107484
161	0x3e2bca58	0.16776407
162	0xbeb38639	-0.3506334
163	0xbedd039c	-0.43166816
164	0x3f06466b	0.524512
165	0xbf7f3558	-0.9969077
166	0xbf4c3086	-0.7976154
167	0x3e7040c2	0.23462203
168	0xbe26bde3	-0.16283374
169	0xbf070797	-0.52745956
170	0x3fd70107	1.6797189
171	0xbee1edb0	-0.44126654
172	0xbf6e1922	-0.930071
173	0xbf4c9e2e	-0.79928863
174	0xbff1f065	-1.8901488
175	0xbf3db748	-0.7410779
176	0xbf9adcbd	-1.2098614
177	0xbf490906	-0.78529394
178	0xbdba9fa1	-0.09112478
179	0xbe7b8e89	-0.24566092
180	0x3c8fc8c3	0.017551785
181	0x3f39d541	0.72591025
182	0xbe0bbe65	-0.13646848
183	0xbf9f1332	-1.2427733
184	0xbf364326	-0.7119621
185	0x3f6abd16	0.9169477
186	0xbe51f44d	-0.2050335
187	0x3e198cdc	0.1499514
188	0x3f112216	0.56692636
189	0xbd267187	-0.04063561
190	0x3eca4183	0.39503106
191	0x3fa13472	1.259413
192	0x3e6ca5dd	0.23110147
193	0x3e345107	0.17609034
194	0xbe20624b	-0.15662496
195	0xbf23e1b9	-0.640163
196	0xbea6bd8f	-0.32566497
197	0xbee5c996	-0.4488036
198	0xbdafb580	-0.0857954
199	0xbec2d096	-0.38049763
200	0xbe6d0904	-0.2314797
201	0xbf43a274	-0.7641976
202	0xbfaa482e	-1.3303277
203	0x3e6f1183	0.23346524
204	0x3df8db83	0.121512435
205	0xbf1c4e90	-0.61057377
206	0xbfcb5950	-1.5886631
207	0xbd92af2f	-0.0716232
208	0x3f78e688	0.9722676
209	0x3f31dda2	0.6947881
210	0x3cca1880	0.024669886
211	0x3ee085ab	0.4385198
212	0x3f914b15	1.1351038
213	0x3ed363a9	0.41286972
214	0xbf67cd8c	-0.90548015
215	0xbf301235	-0.6877778
216	0x3dae130b	0.08499726
217	0xbdc4fa96	-0.09618108
218	0xbe04ca30	-0.12967753
219	0x3ed2d606	0.41178912
220	0xbea6309c	-0.3245896
221	0x3d8fa286	0.07013421
222	0xbf1d9b9f	-0.61565584
223	0x3d3b55ff	0.04573631
224	0xbf027b2c	-0.50969195
225	0x3f0fc2f4	0.5615685
226	0x3e80e727	0.25176355
227	0xbefdb1b3	-0.49549636
228	0xbf5d6b70	-0.8649206
229	0xbe179083	-0.1480122
230	0xbeae14c3	-0.34000215
231	0xbe0aba58	-0.13547647
232	0xbe10dd0f	-0.14146827
233	0xbe014ea9	-0.12627663
234	0xbdf846be	-0.12122868
235	0xbea78125	-0.32715717
236	0x3e26d9f8	0.16294086
237	0x3dd75fd6	0.10516326
238	0xbda3f77a	-0.08006187
239	0xbe04bf10	-0.1296351
240	0x3eb6c779	0.3569906
241	0xbe12d663	-0.14339595
242	0xbef8117b	-0.48450837
243	0xbea9bd2a	-0.33152133
244	0xbd992b66	-0.07478981
245	0xbf6d97da	-0.9280983
246	0xbf38f80e	-0.722535
247	0xbfa69a6d	-1.3015877
248	0xbea11244	-0.31459248
249	0x3f4af97c	0.7928693
250	0xbe278468	-0.16359103
251	0xbf0c3e4e	-0.5478257
252	0x3f4af6b6	0.792827
253	0xbe7ab23b	-0.24482052
254	0xbf74657b	-0.95467347
255	0x3e975a00	0.29560852

conv2.bias f4 [16]
0	0x3f1bb06b	0.6081607
1	0x3f535643	0.825535
2	0x3ecd93fb	0.40151963
3	0x3eea334d	0.45742264
4	0xbdcb2ad0	-0.09920275
5	0xbf351fb2	-0.7075149
6	0xbe386e2d	-0.18010779
7	0xbe43816b	-0.19092338
8	0xbd6bc54c	-0.057561204
9	0x3fe569bd	1.7922894
10	0xbe803066	-0.25036925
11	0x3e9906bb	0.29887947
12	0x3f41033f	0.7539558
13	0xbec0c18b	-0.37647662
14	0xbef88ef8	-0.48546576
15	0xbe22e8cc	-0.15909117

conv3.weight f4 [120, 16, 5, 5]
0	0xbcfd51a3	-0.030922716
1	0xbd34a2c7	-0.04410055
2	0xbc2d3695	-0.010572095
3	0xbd34e0ae	-0.044159584
4	0x3c04a1f6	0.008095255
5	0xbcd56809	-0.026050584
6	0x3cecd6bb	0.028910985
7	0x3d0bdf38	0.034148425
8	0x3b88b1e8	0.0041715987
9	0x3cc436fb	0.023951998
10	0xbc8bd8a9	-0.017071085
11	0xbd12c414	-0.035831526
12	0xbd43c91b	-0.04779921
13	0xbae51e29	-0.0017480302
14	0xbc04de39	-0.008109623
15	0x3d07e0f1	0.033173505
16	0xbc539697	-0.012914321
17	0x3af74b73	0.001886709
18	0xbca3817e	-0.019959208
19	0xbae28006	-0.0017280586
20	0x3d7c1e4c	0.06155233
21	0x3d0a87e3	0.033820998
22	0x3cadb72e	0.021205511
23	0x3cdc0038	0.026855573
24	0x3cf52403	0.029924398
25	0xbd37bbfa	-0.044857003
26	0xbd532b94	-0.05155523
27	0xbdc31391	-0.09525216
28	0xbdfcc56b	-0.12342342
29	0x3bbb340b	0.005712991
30	0xbb782b3d	-0.003786757
31	0xbcdf8502	-0.027285103
32	0xbd9f7b2c	-0.07787165
33	0xbd5cd662	-0.05391539
34	0x3d72ffa6	0.059325837
35	0x3d03897b	0.032113533
36	0xbd0464c3	-0.032322656
37	0xbcf449e4	-0.02982039
38	0xbd465943	-0.04842497
39	0x3cc4f4c9	0.024042504
40	0x3d9cc015	0.07653824
41	0x3c0eb6e3	0.008710596
42	0xbd847915	-0.06468407
43	0xbc8da197	-0.017288966
44	0x3d0ac41b	0.033878427
45	0x3d209a74	0.039209798
46	0xbd5e8959	-0.054330204
47	0xbd26def6	-0.040739976
48	0xbdac5279	-0.08414168
49	0xbd5d7f84	-0.054076687
50	0x3a54186b	0.0008090797
51	0xbd2a61f9	-0.04159734
52	0x3d1a3371	0.037646715
53	0xbd2cb7f4	-0.04216762
54	0x3a132adb	0.0005613991
55	0x3c36d331	0.01115875
56	0xbd38c78d	-0.04511218
57	0xbcaad8b0	-0.020855278
58	0x3c89e0ab	0.016830763
59	0x3cc59cc6	0.024122607
60	0xbd9df223	-0.077121995
61	0xbd08232a	-0.03323666
62	0x3d27713a	0.040879466
63	0xbd775b7f	-0.06038999
64	0xb7d8ce59	-2.5845295e-05
65	0xbd9304b0	-0.071786284
66	0x3c0e5f07	0.0086896485
67	0xbd14308e	-0.036179118
68	0x3b72d81e	0.0037055085
69	0xbbb8d1fa	-0.0056402655
70	0xbd4d3ae2	-0.050104983
71	0x3d143f4a	0.03619317
72	0x3c171351	0.009220914
73	0xbc9f8991	-0.019474776
74	0xbca1dc80	-0.019758463
75	0x3d40b2a7	0.047045376
76	0x3c02f4c8	0.007992931
77	0xbcbb5d7d	-0.022871727
78	0xbd202011	-0.03909308
79	0x3c7b06f3	0.015321481
80	0xbd228373	-0.03967614
81	0x3b8c8574	0.00428837
82	0x3b4d37c4	0.0031313756
83	0xbd23fc6d	-0.040035654
84	0xbbc1fcf6	-0.005920048
85	0xbd09cf9a	-0.03364525
86	0x3bf6843b	0.0075230873
87	0xbcf4640c	-0.029832862
88	0xbc27c2dd	-0.01023933
89	0x3bd2ab9d	0.0064291493
90	0xbbae0b21	-0.0053113853
91	0xbd333bbf	-0.04375815
92	0x3cfde54f	0.030993132
93	0xbd272344	-0.040805116
94	0xbd7b74ec	-0.061390802
95	0xbca0d8e1	-0.019634666
96	0xbcf3e285	-0.029771099
97	0x3c580b02	0.013186218
98	0x3cffdd40	0.03123343
99	0xbd129d9f	-0.03579485
100	0xbc4eb4aa	-0.012616316
101	0xbbb1fb4f	-0.0054315696
102	0xbbdf8a33	-0.0068218946
103	0x3cd58f39	0.02606927
104	0xbc4ce872	-0.012506591
105	0xbc2e9de8	-0.010657765
106	0xbd127df4	-0.03576465
107	0x3c9ba9e4	0.019001909
108	0x3d3a916a	0.045548834
109	0x3ce96752	0.02849165
110	0xbd1417f0	-0.03615564
111	0x3cd53065	0.026024053
112	0xbd092218	-0.03347978
113	0x3bfb09cc	0.00766108
114	0xbd3e8894	-0.04651697
115	0xbd0faeae	-0.035078697
116	0xbbcc079f	-0.0062264944
117	0xbbd72077	-0.0065651494
118	0xbd1da561	-0.038487796
119	0x3d25644a	0.040378846
120	0xbcf829c2	-0.03029335
121	0xbd0c369d	-0.03423177
122	0x3d4a3d8a	0.049375094
123	0xbd10c99c	-0.03534852
124	0xbcf6ec23	-0.030141896
125	0xbdc0692e	-0.093950614
126	0xbd637ce5	-0.05553903
127	0xbb867e28	-0.0041043945
128	0xbd1c1c05	-0.03811266
129	0xbcab3da8	-0.020903423
130	0xbd9c64f8	-0.07636446
131	0xbd346d7d	-0.04404973
132	0xbdbd5813	-0.092453144
133	0xbd0dc271	-0.034609262
134	0xbd07636a	-0.033053793
135	0xbd0d6c21	-0.034526948
136	0xbd88a06a	-0.066712216
137	0xbd54f312	-0.051989622
138	0xbd61e273	-0.0551476
139	0xbd73574d	-0.05940943
140	0xbc6351e9	-0.013874509
141	0xbdec9219	-0.115513034
142	0x3be2b3d6	0.006918411
143	0xbcf2ccce	-0.029638674
144	0x3ca41d61	0.02003354
145	0x3c90a50d	0.017656827
146	0xbd721d87	-0.05911019
147	0xbd9436d9	-0.07237024
148	0xbd85eb74	-0.0653905
149	0xbb83435b	-0.004005832
150	0x3d9f1e0d	0.077694036
151	0x3c81dad3	0.015851414
152	0x3d332dbc	0.043744788
153	0xbd1dbaa9	-0.03850809
154	0xbd391eab	-0.045195263
155	0x3d42bf01	0.047545437
156	0x3d66ee23	0.05637945
157	0xbc7c0c92	-0.015383856
158	0xbbd8db23	-0.00661792
159	0xbd138f41	-0.03602529
160	0xbb854c8b	-0.0040679625
161	0xbc89b8c7	-0.016811742
162	0xbd71e619	-0.05905733
163	0x3b8f5931	0.004374646
164	0xbde6eaca	-0.11275251
165	0xbcc040ae	-0.023468342
166	0xbd665a46	-0.056238435
167	0xbc7d9790	-0.01547803
168	0xbd86f51e	-0.06589721
169	0xbd50d4ea	-0.0509843
170	0xbcad7f7d	-0.021178955
171	0xbd728d21	-0.059216622
172	0xbd668194	-0.05627592
173	0xbd070683	-0.032965194
174	0xbe07bdb4	-0.1325596
175	0xbc837a75	-0.016049603
176	0x3d658cce	0.056042485
177	0x3ce7969d	0.02827006
178	0x3d4febbc	0.050761923
179	0x3ce5ed1a	0.02806716
180	0xbc054d44	-0.008136097
181	0x3cc0f623	0.023554867
182	0x3d54ef14	0.051985815
183	0xbb7f93b9	-0.0038997962
184	0x3cc67713	0.0242267
185	0xbb1ee223	-0.0024243675
186	0x3d5a988c	0.053368136
187	0x3be3dc46	0.006953749
188	0xbd3b52dd	-0.04573332
189	0x3c20d204	0.009815697
190	0x3c09ebb2	0.008418011
191	0x3d3b1dd3	0.04568274
192	0xbc9128d5	-0.017719666
193	0xbca3aa0b	-0.019978544
194	0x3ca5900c	0.020210288
195	0x3c767633	0.015042829
196	0xbc3f257b	-0.011666651
197	0x3cce547f	0.025186775
198	0xbd015fbe	-0.031585447
199	0x3b987b1e	0.0046533486
200	0xbbd25051	-0.006418266
201	0x3d284074	0.041077092
202	0xbcc8b764	-0.02450151
203	0xbc263fef	-0.010147079
204	0x3bb76367	0.0055965665
205	0x3c6ffecc	0.014648151
206	0x3d278a06	0.040903114
207	0x3d2f91c0	0.042863607
208	0xbd0488df	-0.032357093
209	0xbc47401c	-0.012161281
210	0x3b3cae2f	0.0028790345
211	0x3ca461a8	0.020066097
212	0xbd2e1748	-0.04250267
213	0xbd26c9e4	-0.04071988
214	0x3d17bfa7	0.03704801
215	0x3d39497a	0.04523609
216	0x3c12508b	0.008930336
217	0xbd338085	-0.043823738
218	0x3ce15581	0.027506592
219	0x3c62cd01	0.013842822
220	0xbd24a1be	-0.040193312
221	0x3bce9d47	0.00630537
222	0x3cca1938	0.024670228
223	0x3d3e8b02	0.046519287
224	0x3d0d1cea	0.034451403
225	0xbced95dd	-0.029002124
226	0xbd35bcb6	-0.044369422
227	0xbd47928d	-0.048723746
228	0xbd119758	-0.035544723
229	0xbd3e8cc8	-0.04652098
230	0x3c96fc08	0.018430725
231	0xba083626	-0.0005196057
232	0xbbab6e9b	-0.005231691
233	0x3d273288	0.040819675
234	0xbcb4a3ce	-0.022050764
235	0x3c8f35a9	0.017481642
236	0xbd732bf3	-0.059368085
237	0xbcaf2490	-0.021379739
238	0xbb4f4e47	-0.003163235
239	0xbbd7e0ae	-0.006588063
240	0xbd123f68	-0.035705
241	0xbd4cc28f	-0.049990233
242	0xbd785f0c	-0.06063752
243	0xbcd9f68e	-0.026606824
244	0xb7a464fd	-1.959735e-05
245	0x3d271a18	0.04079637
246	0x3c0c010e	0.008545173
247	0xbce9a681	-0.028521778
248	0xbd0e4bd9	-0.034740303
249	0x3c980569	0.018557267
250	0x3c3ddef2	0.011588799
251	0x3d46f61f	0.048574563
252	0xbbdb4cb3	-0.006692493
253	0x3d396697	0.045263853
254	0xbc80add7	-0.015707893
255	0xbcb5beca	-0.022185702

conv3.bias f4 [120]
0	0xbd6ebc8a	-0.058285274
1	0xbdec5178	-0.115389764
2	0xba79e741	-0.00095330557
3	0xbd51ad7c	-0.05119084
4	0xbe9c33ec	-0.30508363
5	0x3e1e0178	0.15430248
6	0x3c350165	0.011047696
7	0x3dd72f1a	0.10507031
8	0x3f3c47c8	0.7354703
9	0x3ea04c13	0.3130804
10	0x3d7b5b9d	0.061366666
11	0xbe31fde4	-0.17382008
12	0x3f45b8ee	0.77235305
13	0xbd547093	-0.05186517
14	0xbe38dbce	-0.18052599
15	0xbeb117db	-0.34588513
16	0xbeecf49d	-0.46280375
17	0xbdd77f61	-0.105223425
18	0x3e1f71d8	0.15570772
19	0x3e6c2fb2	0.2306507
20	0xbedab84e	-0.42718738
21	0xbe60422b	-0.21900241
22	0x3f172479	0.5904003
23	0xbd9bcaa4	-0.0760701
24	0x3a1c9543	0.00059731695
25	0xbf601f3d	-0.87547666
26	0xbe137461	-0.14399864
27	0xbf0949c7	-0.536282
28	0x3e3509d6	0.17679533
29	0xbce57bf6	-0.02801321
30	0xbdf9e0f9	-0.12201113
31	0xbe329efb	-0.17443459
32	0x3dacb7d5	0.08433501
33	0xbd95eade	-0.07320188
34	0x3e6fcf3e	0.234189
35	0xbd8431b7	-0.06454795
36	0x3dae1c02	0.08501436
37	0x3c8f68c2	0.017506007
38	0xbe1bd358	-0.1521734
39	0x3f7af9cd	0.98037416
40	0xbec1e721	-0.3787165
41	0xbe1a9014	-0.15094024
42	0xbf96a75d	-1.1769825
43	0xbc437d9e	-0.011931805
44	0xbe5ee129	-0.2176558
45	0xbdaa3c08	-0.08312231
46	0x3e969484	0.29410183
47	0xbd7b7470	-0.06139034
48	0x3ec0f098	0.37683558
49	0xbf563a6e	-0.83682907
50	0xbf3dae4f	-0.740941
51	0xbe8d26d4	-0.27568686
52	0xbe7995f8	-0.24373615
53	0xbd56e092	-0.05246026
54	0x3e8865e5	0.2664024
55	0xbd924311	-0.07141698
56	0xbeb7c7b3	-0.35894546
57	0xbf198c30	-0.59979534
58	0xbd37634d	-0.044772435
59	0xbd6f5489	-0.05843023
60	0x3d4a8c40	0.04945016
61	0xbf082f47	-0.5319714
62	0xbc452cdf	-0.012034624
63	0x3ec218a6	0.3790943
64	0x3dd2c8f3	0.10292234
65	0x3e2dc118	0.1696819
66	0xbd9b89d7	-0.0759465
67	0x3e33d914	0.17563277
68	0x3eb8e21d	0.3611001
69	0x3f85e3d9	1.0460159
70	0xbf28121b	-0.65652627
71	0x3de895f7	0.113567285
72	0x3cbe98e1	0.023266258
73	0x3edf9a9f	0.43672654
74	0x3c670bff	0.014101981
75	0xbfa6fca6	-1.3045852
76	0xbf035fa3	-0.51317805
77	0xbdd546ed	-0.10413919
78	0xbb33c8e8	-0.0027432982
79	0xbcdfe3f2	-0.027330372
80	0x3eb0fe14	0.34568846
81	0xbd67996c	-0.0565428
82	0x3dea9f49	0.114561625
83	0xbf387762	-0.72057164
84	0xbea806a0	-0.32817554
85	0xbd899195	-0.06717221
86	0xbe27cff8	-0.16387928
87	0xbe5c1f39	-0.21496285
88	0xbd6e59c5	-0.05819108
89	0x3d6bb7cb	0.057548326
90	0xbbe06aad	-0.0068486542
91	0xbe15e29e	-0.14637229
92	0x3e167753	0.14693956
93	0x3e6e5414	0.23274261
94	0xbf2b5efe	-0.6694182
95	0x3d194a38	0.037424296
96	0xbec39ecc	-0.3820709
97	0xbd632ae1	-0.055460814
98	0xbe0c7fdb	-0.13720648
99	0xbd5a749b	-0.05333386
100	0xbeb38ca9	-0.35068253
101	0x3de4a5a8	0.11164409
102	0xbd02ac8d	-0.03190284
103	0xbbfc06b0	-0.007691227
104	0xbdd314ad	-0.10306678
105	0x3e5922b1	0.2120464
106	0x3cf8b222	0.030358378
107	0xbe97735d	-0.29580203
108	0x3eb0b5ad	0.34513608
109	0x3f748016	0.95507944
110	0xbf1f567a	-0.6224133
111	0xbd85f2b7	-0.06540435
112	0xbe4a1931	-0.19736172
113	0x3dac115a	0.08401747
114	0xbd0109f6	-0.03150364
115	0xbf0a3c76	-0.53998506
116	0x3da1b85c	0.07896492
117	0xbf5a762c	-0.85336566
118	0x3e3fc666	0.18728027
119	0xbd33e33b	-0.043917876

fc1.weight f4 [84, 120]
0	0xbcf86d2b	-0.030325493
1	0xbe4e414f	-0.20142101
2	0xbe8d3ccb	-0.27585444
3	0x3dc06769	0.09394724
4	0xbe8805e5	-0.26566997
5	0xbd4290c0	-0.047501326
6	0xbe17acbf	-0.14811991
7	0xbda1ed64	-0.07906607
8	0xbe2c8004	-0.16845709
9	0x3de65624	0.11246899
10	0x3ce53bc6	0.027982604
11	0xbdf96822	-0.12178065
12	0xbc1c75e8	-0.009549595
13	0x3da70de5	0.08156947
14	0x3ab667a3	0.0013916384
15	0xbdc47707	-0.09593015
16	0xbe197777	-0.14986978
17	0xbd262c4d	-0.040569592
18	0xbd5bbb67	-0.053645518
19	0x3d9e25af	0.07722031
20	0xbe6dbac2	-0.23215774
21	0xbd44eb44	-0.04807593
22	0x3e3523d1	0.17689444
23	0xbe12836c	-0.14307946
24	0x3da0c1f9	0.07849497
25	0xbde8d5c2	-0.11368896
26	0x3c830fe2	0.015998784
27	0xbeed6343	-0.46364793
28	0xbd8b9770	-0.06815994
29	0x3e00f16c	0.12592095
30	0xbc070613	-0.008241194
31	0xbcecd586	-0.02891041
32	0xbd99d748	-0.07511765
33	0x3cf01003	0.02930451
34	0xbdaa6d79	-0.083216615
35	0xbe2c2cb8	-0.16813934
36	0x3d81cd59	0.06337995
37	0xbd998b88	-0.074973166
38	0xb9892318	-0.00026156823
39	0xbeff15f0	-0.49821424
40	0x3cc7010f	0.024292497
41	0xbc1e3a78	-0.009657495
42	0xbe8fc091	-0.28076604
43	0x3cdfbad3	0.027310764
44	0xbeaa1b3d	-0.33223906
45	0xbd95fd48	-0.073237
46	0x3e19a256	0.15003332
47	0xbc5d64a9	-0.013512769
48	0xbebe14f5	-0.37125364
49	0x3d818a7a	0.063252404
50	0xbe3aeba2	-0.1825395
51	0xbdde5450	-0.10855925
52	0xbe46a996	-0.1940063
53	0xbe080c12	-0.13285854
54	0xbcbc8982	-0.023014788
55	0x3d9df0b4	0.07711926
56	0xbd63dcf7	-0.05563065
57	0x3d3fcf9a	0.046828844
58	0xbe932b7f	-0.28744122
59	0xbe0edace	-0.13950655
60	0xbe423a95	-0.1896766
61	0xbd8d0dbb	-0.068873845
62	0xbd7922a2	-0.060824044
63	0x3d31f121	0.04344285
64	0x3d542083	0.051788818
65	0xbd7c3afe	-0.061579697
66	0xbdb6b487	-0.089211516
67	0xbdb66041	-0.08905078
68	0xbd3caa13	-0.046060633
69	0xbebb8c91	-0.3663068
70	0x3c1d03d4	0.009583432
71	0xbd9dcd4c	-0.07705173
72	0xbe81718b	-0.2528194
73	0xbe112a39	-0.14176263
74	0x3cdbf795	0.026851455
75	0xbe9cccb1	-0.30624917
76	0xbe7d6311	-0.24744822
77	0xbdae047d	-0.0849695
78	0x3d8ff3f1	0.0702895
79	0xbca1dabd	-0.019757623
80	0xbe443b66	-0.19163284
81	0xbbfb806c	-0.007675221
82	0xbd90da77	-0.07072919
83	0x3d266405	0.04062273
84	0xbe780fbb	-0.2422475
85	0xbe4abf50	-0.19799542
86	0xbd8e026c	-0.06934056
87	0x3e846383	0.2585717
88	0x3b71781d	0.0036845275
89	0x3d3112a7	0.04323068
90	0xbeaa67c0	-0.3328228
91	0xbd98e078	-0.07464689
92	0x3d634ab8	0.05549118
93	0x3d9eee47	0.077602915
94	0xbe02db4c	-0.12778968
95	0xbecd6be9	-0.4012139
96	0x3c5f3cb6	0.013625314
97	0xbcd8c076	-0.02645896
98	0xbd22f76f	-0.039786752
99	0xbd2b7c28	-0.04186645
100	0xbd7959a2	-0.060876496
101	0xbc3d6b73	-0.011561262
102	0xbe021529	-0.12703384
103	0x3d75f18b	0.060044806
104	0xbda62531	-0.081125624
105	0xbe7a2bf8	-0.24430835
106	0x3dadd1ba	0.08487268
107	0xbe60e1ef	-0.21961187
108	0x3ac81c3a	0.0015267201
109	0xbe64d1a8	-0.22345603
110	0xbe5fb8ef	-0.2184789
111	0xbd82731c	-0.063696116
112	0xbe262063	-0.16223292
113	0xbdf211d8	-0.1181981
114	0x3d851419	0.06497974
115	0xbea6e361	-0.3259535
116	0x3d0f885c	0.03504215
117	0xbe38a0c4	-0.18030077
118	0xbe5fcb87	-0.21854983
119	0x3d53c71f	0.05170357
120	0xbd4f0355	-0.050540287
121	0xbe20e8b4	-0.15713769
122	0x3d9ba026	0.07598905
123	0x3c96f127	0.018425537
124	0xbd40d2f3	-0.047076177
125	0x3d807a9c	0.06273386
126	0xbbd1da1a	-0.0064041736
127	0x3da4c8e0	0.08046126
128	0x3e0e665b	0.13906233
129	0x3cf67f8a	0.030090112
130	0x3ce19055	0.027534643
131	0xbc672173	-0.014107096
132	0xbd2c693d	-0.04209255
133	0xbcec6591	-0.028857024
134	0x3d9f4bd6	0.077781364
135	0xbd501a4e	-0.050806336
136	0xbd2c0600	-0.04199791
137	0xbd874b44	-0.06606153
138	0x3c26420f	0.0101475855
139	0xbcab182e	-0.020885553
140	0xbe25f1ce	-0.16205522
141	0x3decf339	0.115698285
142	0xbe102bc2	-0.14079192
143	0xbc00c88f	-0.007860317
144	0x3c34e1fd	0.011040208
145	0xbe186bef	-0.14884923
146	0x3b6d3adc	0.0036198413
147	0xbdb0d28b	-0.08633908
148	0xbddeeac4	-0.10884622
149	0x3ccae705	0.024768362
150	0xbdbb708e	-0.091523275
151	0x3d6128ea	0.05497066
152	0xbc8ded7e	-0.01732516
153	0x3dce451a	0.10071774
154	0xbce870c8	-0.02837409
155	0x3b1941fe	0.0023385282
156	0x3d71864a	0.05896596
157	0xbd980190	-0.07422173
158	0xbdadcb8c	-0.08486089
159	0xbdd7dc0f	-0.1054002
160	0xbddfc501	-0.109262474
161	0xbd6e8ac1	-0.058237795
162	0xbd9edcfa	-0.07756992
163	0xbd00a010	-0.031402647
164	0xbd930de5	-0.071803845
165	0x3beba2a8	0.007191021
166	0xbd7fce63	-0.062452685
167	0x3b821e83	0.0039709224
168	0xbdc8fe5e	-0.09814142
169	0x3cd07dd5	0.025450626
170	0xbe10a929	-0.1412703
171	0xbe4ddbc8	-0.20103371
172	0x3da549ec	0.0807074
173	0x3e1a8cf7	0.15092836
174	0x3e3f227a	0.18665496
175	0x3bf1f9ad	0.0073845
176	0xbc6cbe05	-0.014449601
177	0xbd4a0420	-0.04932034
178	0x3db97c5e	0.09056924
179	0xbd23c45f	-0.039982196
180	0x3d51f7e6	0.051261805
181	0xbd30d4e7	-0.04317179
182	0x3e1a12fd	0.15046306
183	0xbdc89101	-0.09793282
184	0x3d3c8aae	0.046030693
185	0xbd41da55	-0.04732736
186	0x3d99d0a1	0.07510496
187	0xbd915ffe	-0.07098387
188	0xbd7b65d1	-0.061376397
189	0xbd28bdba	-0.041196562
190	0x3c9f82c2	0.01947153
191	0xbd080982	-0.033212192
192	0xbd3fb15a	-0.046799995
193	0xbda18420	-0.07886529
194	0xbb0b7b37	-0.0021283159
195	0xbdf9b23f	-0.12192201
196	0xbdb08105	-0.086183585
197	0x3d033e5b	0.03204189
198	0x3ba8db39	0.0051530865
199	0xbba5576c	-0.005045822
200	0xbe772c5d	-0.24138017
201	0xbd5e0527	-0.054204132
202	0xbdf78a60	-0.1208694
203	0x3d933038	0.07186931
204	0xbdac047d	-0.083992936
205	0xbc47b76a	-0.012189725
206	0x3d084859	0.03327212
207	0xbda71293	-0.081578396
208	0x3dd3a6dc	0.1033456
209	0xbc8271da	-0.01592343
210	0xbdf040da	-0.117311195
211	0xbdaea1c4	-0.08526948
212	0x3bd9b728	0.0066441484
213	0x3db2f8c9	0.08738858
214	0xbcdd521f	-0.027016697
215	0xbe1208d7	-0.14261185
216	0xbd1df3cd	-0.038562585
217	0xbb340b09	-0.0027472398
218	0xbcf1137a	-0.029428232
219	0xbc01820a	-0.007904539
220	0x3d3afc11	0.045650546
221	0x3d827691	0.06370271
222	0xbd5c84fe	-0.05383777
223	0xbc6bb3cb	-0.014386128
224	0xbd4a5d52	-0.049405403
225	0x3cc33144	0.023827203
226	0xbd0ef076	-0.03489729
227	0xbd816f3a	-0.06320043
228	0xbcd9e988	-0.026600614
229	0xbe495fb7	-0.19665419
230	0xbe52fe1f	-0.20604752
231	0x3c4793e2	0.012181254
232	0xbe4f523c	-0.20246214
233	0x3d1a3f65	0.037658114
234	0xbd7d7a78	-0.061884373
235	0xbdf3f1e9	-0.11911375
236	0xbd24c0e4	-0.040223017
237	0xbdbcfa79	-0.09227461
238	0xbe4ed5a7	-0.2019869
239	0xbd9992fe	-0.0749874
240	0x3d1d9db2	0.038480468
241	0xbeaa79a2	-0.33295923
242	0x3e71b6d7	0.23604904
243	0xbe10ddd1	-0.14147116
244	0xbe57978b	-0.21053903
245	0x3df7eecf	0.12106096
246	0x3c35f779	0.011106365
247	0xbe05fc2a	-0.13084474
248	0x3f043076	0.51636446
249	0xbd02a363	-0.0318941
250	0xbdbde8d1	-0.09272922
251	0x3e3658df	0.17807339
252	0xbe132941	-0.14371206
253	0x3d552d6a	0.052045263
254	0xbdfb9a44	-0.12285283
255	0x3ed2dd52	0.4118448

fc1.bias f4 [84]
0	0xbe2e49b6	-0.17020306
1	0xbd169b26	-0.036769055
2	0x3f2778c9	0.6541868
3	0xbd4a2219	-0.049348924
4	0x3e185e11	0.14879633
5	0x3e5271c6	0.20551214
6	0x3e0dece4	0.13859898
7	0x3e20137a	0.1563243
8	0x3e86afd3	0.26306018
9	0xbe04a7d6	-0.1295465
10	0x3f63e37e	0.89019
11	0xbea4ad97	-0.3216369
12	0x3db9fad2	0.09081043
13	0x3c6b5d15	0.014365454
14	0xbdac5c57	-0.0841605
15	0xbe3ac758	-0.18240106
16	0x3f567b14	0.8378155
17	0x3f5036e6	0.8133377
18	0xbd6e5aae	-0.058191948
19	0x3e7c4808	0.24636853
20	0x3e114d0d	0.14189549
21	0x3ef29706	0.47380847
22	0xbdca18d8	-0.0986802
23	0x3c758406	0.01498509
24	0x3e546d4a	0.20744815
25	0x3f1fb10b	0.6237952
26	0xbd357af2	-0.044306703
27	0x3d8370bd	0.064179875
28	0xbe0e4171	-0.13892151
29	0x3f07a14c	0.52980494
30	0x3f090d7b	0.53536195
31	0x3f09cf00	0.5383148
32	0xbc6b9bc8	-0.014380403
33	0xbe0af444	-0.13569742
34	0x3ded586b	0.1158913
35	0xbd8db4c2	-0.069192424
36	0x3f64a45e	0.89313304
37	0x3e72face	0.23728487
38	0xbe3c74fd	-0.18404002
39	0x3f3b8865	0.73254997
40	0x3e0f7134	0.14008027
41	0x3e74c63e	0.23903748
42	0x3f73d658	0.9524894
43	0x3f0017c3	0.5003626
44	0xbe338f25	-0.17535074
45	0xbde36734	-0.11103669
46	0x3ed91827	0.4240124
47	0x3f74e890	0.9566736
48	0xbb129ebc	-0.0022372445
49	0x3e0a68a4	0.1351648
50	0x3ec07b21	0.3759394
51	0xbd07cd06	-0.03315451
52	0x3f26f760	0.65221214
53	0xbcc8e906	-0.024525177
54	0x3d280f4c	0.041030213
55	0x3f3bcf2d	0.73363
56	0xbe1fd5aa	-0.1560885
57	0x3ea3fdc3	0.32029542
58	0x3d9b7cf0	0.07592189
59	0xbd593522	-0.053029187
60	0x3dc2e6a1	0.09516645
61	0xbc8e1e21	-0.017348351
62	0x3f73d5d0	0.95248127
63	0x3e99a776	0.30010575
64	0x3f561ad9	0.83634716
65	0xbd965ea4	-0.0734227
66	0x3d81f6c1	0.06345893
67	0x3ea4c3e1	0.32180694
68	0x3d807e74	0.06274119
69	0x3d39759f	0.045278188
70	0x3f66c077	0.9013743
71	0xbd8ecc0e	-0.06972514
72	0x3e76beca	0.24096218
73	0xbe1b6eaa	-0.15178934
74	0x3f55a2ac	0.8345134
75	0x3eed3bec	0.4633478
76	0x3f3f579e	0.7474307
77	0x3f0c448a	0.5479208
78	0x3e4014c7	0.18757926
79	0xbd8eec8b	-0.06978711
80	0xbe891c6f	-0.26779506
81	0xbdaa77cb	-0.0832363
82	0x3f81544a	1.0103848
83	0x3de306fc	0.110853165

fc2.weight f4 [10, 84]
0	0xbeb2b31e	-0.3490228
1	0xbdca0af3	-0.0986537
2	0xbf1485d3	-0.580167
3	0x3e868f9d	0.26281443
4	0xbd449b33	-0.047999572
5	0xbe13c0dd	-0.1442904
6	0x3eb3ad93	0.35093364
7	0xbddc244e	-0.10749112
8	0xbac5d04a	-0.0015091982
9	0x3dd0692a	0.101763085
10	0xbf25b46f	-0.64728445
11	0xbc8d3c0c	-0.017240547
12	0x3e932841	0.2874165
13	0x3ecf0b61	0.4043837
14	0x3d747b6a	0.05968801
15	0xbcc2ca7c	-0.023778193
16	0x3dce413f	0.100710385
17	0xbebd9c90	-0.3703351
18	0xbe4ec665	-0.20192869
19	0x3f0a7618	0.54086447
20	0xbd89d346	-0.0672975
21	0x3c071543	0.008244815
22	0xbe0d8e2d	-0.13823767
23	0xbda4c6d3	-0.08045735
24	0x3e68deeb	0.22741286
25	0x3d035fb1	0.03207368
26	0xbe4d10b3	-0.20025901
27	0xbd7ac51a	-0.061223127
28	0xbd973830	-0.07383764
29	0xbe9229aa	-0.28547412
30	0xbe212096	-0.15735087
31	0x3e9bedcf	0.3045487
32	0x3e77366f	0.24141859
33	0x3e732b8c	0.2374708
34	0xbef4c51a	-0.47806627
35	0x3c5337c2	0.012891712
36	0x3f513f30	0.8173704
37	0xbd8ae3e4	-0.06781748
38	0x3df6b610	0.120464444
39	0xbe9ba0f9	-0.3039625
40	0xbdf90bb7	-0.121604376
41	0x3a89d7f3	0.0010516628
42	0x3e3d4424	0.18483025
43	0x3bbb3831	0.0057134856
44	0xbda21837	-0.07914775
45	0x3d607ba9	0.05480543
46	0x3e2c1826	0.16806087
47	0x3e94d4ff	0.29068753
48	0xbda23e74	-0.07922068
49	0x3f325c96	0.69672525
50	0x3e8fa16d	0.28052846
51	0x3dec988b	0.11552533
52	0x3f1658ff	0.5872955
53	0x3eae33a5	0.34023777
54	0x3f170f02	0.59007275
55	0x3f83e8fc	1.0305476
56	0xbce81670	-0.028331012
57	0xbe6a94b0	-0.22908282
58	0x3ecef917	0.40424415
59	0x3ebd8774	0.37017405
60	0x3eb1c80a	0.3472293
61	0xbc9da52d	-0.019243801
62	0xbf2d24e2	-0.67634404
63	0x3d11a002	0.035552986
64	0x3dcbf8c1	0.099595554
65	0xbd8ce4ce	-0.068795785
66	0xbea0d398	-0.31411433
67	0xbd95a6cb	-0.07307204
68	0x3dad0d60	0.08449817
69	0x3f0488b7	0.5177111
70	0xbec0d9e1	-0.37666228
71	0xbbe5511b	-0.006998194
72	0xbc4f6038	-0.012657218
73	0xbd46cc30	-0.048534572
74	0xbeb02006	-0.34399432
75	0x3d7d0d19	0.06178007
76	0x3f7fe7a3	0.99962825
77	0xbe5c0af5	-0.21488555
78	0x3c726c85	0.014796381
79	0x3cd2e6fa	0.025744904
80	0x3eaa5d9d	0.33274546
81	0xbaaf33e4	-0.0013366905
82	0x3ea97a56	0.33101147
83	0x3ce962ca	0.02848949
84	0x3d4858d2	0.04891283
85	0x3bd338f6	0.0064459993
86	0xbee9fedd	-0.45702258
87	0xbee04e6d	-0.43809834
88	0x3d79e22a	0.061006702
89	0xbe26880a	-0.16262832
90	0xbeaa9f8f	-0.3332486
91	0x3d92f50c	0.07175645
92	0x3d73d15e	0.05952584
93	0xbd0bc20c	-0.034120604
94	0xbe1d50df	-0.15362881
95	0xbdad611e	-0.08465789
96	0xbe67d35b	-0.2263922
97	0xbec019dd	-0.37519732
98	0x3f239a69	0.63907486
99	0xbdd8b881	-0.10582066
100	0xbeddcc8c	-0.4332012
101	0xbe8a6573	-0.27030525
102	0x3d09bf2b	0.033629578
103	0xbe8f126b	-0.2794374
104	0xbe8a3bba	-0.26998693
105	0xbed132a8	-0.4085896
106	0xbe0fd582	-0.1404629
107	0xbd66461f	-0.056219216
108	0x3e9c9af7	0.3058698
109	0xbe4d2799	-0.20034637
110	0x3e186da5	0.14885576
111	0xbe31533a	-0.17316905
112	0xbcce2ddf	-0.025168357
113	0xbddde6dd	-0.10835049
114	0x3e172791	0.14761187
115	0x3e686013	0.226929
116	0x3e103194	0.14081413
117	0xbd931d6d	-0.07183347
118	0xbebfc6d8	-0.37456393
119	0x3de0a238	0.10968441
120	0xbe8fe6de	-0.28105825
121	0xbd16247a	-0.03665588
122	0xbd6fd03b	-0.058548193
123	0x3e57b686	0.21065721
124	0x3d5769c5	0.052591104
125	0xbe7caff2	-0.24676493
126	0xbeb15cfe	-0.3464126
127	0x3eecf551	0.46280912
128	0x3ac5eda0	0.0015100725
129	0xbdf2362e	-0.1182674
130	0xbe9b1370	-0.30288267
131	0xbed3438d	-0.41262475
132	0xbdd8547f	-0.10562991
133	0x3ca5dc87	0.020246757
134	0x3ed19950	0.4093728
135	0x3db01918	0.08598536
136	0xbe13c6e7	-0.14431344
137	0xbd09fb0d	-0.033686686
138	0xbf135765	-0.5755523
139	0xbf14fe5e	-0.58200634
140	0xbc6cb7cd	-0.014448118
141	0x3ea09c5c	0.31369293
142	0xbd07ba80	-0.033136845
143	0x3e6df661	0.23238517
144	0xbdf940fe	-0.121705994
145	0xbe906f7d	-0.2821006
146	0xbeb316f2	-0.34978443
147	0x3ec3a804	0.38214123
148	0x3dd029cb	0.101642214
149	0x3e95c10b	0.29248843
150	0xbe40a809	-0.188141
151	0xbef7c40e	-0.48391765
152	0xbedca904	-0.430977
153	0xbd5dac6f	-0.054119524
154	0xbebb9cfb	-0.36643204
155	0xbe9331ef	-0.28749034
156	0xbdc5dc7d	-0.096611954
157	0x3e6d4f72	0.23174837
158	0xbeac8284	-0.33693326
159	0x3f69aed2	0.9128238
160	0x3ea40daf	0.3204169
161	0xbe85ca6f	-0.26131007
162	0x3daf7e1d	0.08568976
163	0x3dab7732	0.08372344
164	0xbd2a39b2	-0.04155893
165	0x3f13a262	0.5766965
166	0x3f669dae	0.9008435
167	0x3d7ed6f9	0.062216733
168	0xbebeb1ae	-0.37244934
169	0x3b4760e7	0.0030422749
170	0xbf0ec02c	-0.5576198
171	0xbe1c06b5	-0.15236934
172	0x3f042bbb	0.5162923
173	0xbc851802	-0.0162468
174	0xbe83e2f8	-0.257591
175	0xbdde4b86	-0.10854249
176	0x3e964759	0.2935131
177	0xbd3f4c24	-0.046703473
178	0xbed4111a	-0.41419297
179	0xbea5782c	-0.32318246
180	0xbf1428eb	-0.57874936
181	0xbd20b343	-0.039233457
182	0x3e341644	0.17586619
183	0xbe35bf71	-0.1774881
184	0x3f947df0	1.1600933
185	0xbefd55f4	-0.4947964
186	0x3d9130b0	0.070893645
187	0x3e68e936	0.22745213
188	0x3eb08242	0.3447438
189	0xbe8deb39	-0.27718523
190	0xbdd91ba6	-0.10600977
191	0x3e314b9f	0.17314003
192	0x3db4c342	0.08826305
193	0xbe8449a7	-0.25837442
194	0xbd965086	-0.073395774
195	0x3db538ed	0.08848748
196	0xbd546565	-0.05185451
197	0x3d314e04	0.043287292
198	0x3f5fe844	0.87463784
199	0x3f25bbd5	0.64739734
200	0x3ea8676d	0.32891408
201	0x3e4fb276	0.20282921
202	0x3dbe0ea1	0.09280134
203	0x3eab56bc	0.3346461
204	0x3eec09c2	0.46101195
205	0x3eb85244	0.36000264
206	0xbdbc01be	-0.0918002
207	0x3d9280c6	0.07153468
208	0xbe2dbde7	-0.16966973
209	0x3e66fba6	0.22556934
210	0x3e18e895	0.14932473
211	0xbee59ecf	-0.44847724
212	0x3e0d6732	0.13808897
213	0x3da22237	0.07916682
214	0xbeac6de5	-0.33677593
215	0x3d93da60	0.07219386
216	0xbb8db924	-0.004325049
217	0xbe1918b4	-0.1495083
218	0x3e2f5b36	0.17124638
219	0x3e82c0df	0.25537774
220	0x3e33a487	0.17543231
221	0xbdb953d0	-0.09049189
222	0x3f16c80f	0.58899015
223	0x3f4e8439	0.80670506
224	0xbd9228ab	-0.07136663
225	0xbf1ab015	-0.6042493
226	0xbda0ea46	-0.07857184
227	0x3dfc0290	0.12305176
228	0xbe97438d	-0.29543725
229	0x3f92592d	1.1433464
230	0x3f34175c	0.70348144
231	0xbe95fdf0	-0.292953
232	0xbdb7b88e	-0.08970748
233	0xbde46c76	-0.111535
234	0x3ebe35a2	0.37150294
235	0x3d9f51e2	0.0777929
236	0x3ec6e4d7	0.38846466
237	0xbd68017c	-0.05664204
238	0x3f8c19b0	1.0945339
239	0x3dca621e	0.098819956
240	0xbe4bd3b2	-0.19904974
241	0x3c5fe06b	0.013664345
242	0xbf12327b	-0.5710828
243	0x3cadd58c	0.021219991
244	0xbea6712f	-0.32508227
245	0xbf065675	-0.5247567
246	0xbd9c3d36	-0.076288626
247	0xbd73cc0d	-0.05952077
248	0x3d8b1bab	0.067923866
249	0xba39675a	-0.00070725905
250	0x3e093556	0.13399252
251	0x3e7364a9	0.23768868
252	0xbce52763	-0.027972883
253	0x3d41ee10	0.047346175
254	0xbf0bd92c	-0.54628253
255	0x3e0225b9	0.12709703

fc2.bias f4 [10]
0	0x3f5b8233	0.85745543
1	0xbf829a8a	-1.0203412
2	0x3f2ce947	0.6754345
3	0x3f39686a	0.7242495
4	0x3f585b80	0.8451462
5	0xbf8ae4dc	-1.0851092
6	0x3f908340	1.1290054
7	0xbe711718	-0.23543966
8	0xbe69c9d2	-0.22830895
9	0xbfbb792c	-1.4646354
