ex1_LeNet5/lenet5_bnTrue_dpFalse_wdFalse_weights.pth (torch, 260171 bytes, 26 tensors)

conv1.weight f4 [6, 1, 5, 5]
0	0xbdc7c31c	-0.09754011
1	0x3eaff49b	0.34366307
2	0x3e9f48c1	0.31110194
3	0x3e8115d3	0.25211963
4	0xbf12c8c5	-0.573376
5	0xbf6c55f4	-0.92318654
6	0xbf0b4972	-0.54408944
7	0x3dac460a	0.084117964
8	0x3e9e44cb	0.3091186
9	0xbf4f0f0d	-0.8088234
10	0xbecc3ca5	-0.39890018
11	0xbe36c89f	-0.17849968
12	0x3ebcdda2	0.36887842
13	0x3f879f9e	1.0595586
14	0xbde3b6b9	-0.11118836
15	0x3eac6f2a	0.3367856
16	0x3e7a2842	0.2442942
17	0x3f4e95a4	0.80697083
18	0x3ff24145	1.8926169
19	0x3f597024	0.8493674
20	0x3dbfb7e9	0.0936125
21	0xbd156f57	-0.036483135
22	0xbe756a25	-0.23966272
23	0x3f8a3a3e	1.0799024
24	0xbda8ab20	-0.082357645
25	0xbe38c210	-0.18042779
26	0x3c99d2a5	0.018777201
27	0x3fb7088c	1.4299483
28	0x3ebfb251	0.37440732
29	0xbd51e661	-0.051245097
30	0xbf6ef2f1	-0.9333945
31	0xbfd3f591	-1.6559316
32	0xbead7f7f	-0.33886334
33	0xbd4127c3	-0.04715706
34	0x3f8c9552	1.0983069
35	0xbf9905fa	-1.1954949
36	0xc055823d	-3.336074
37	0xc032eb0a	-2.7955956
38	0xbf515ffb	-0.8178708
39	0x3ee2cf18	0.44298625
40	0x3f44cf6d	0.76879007
41	0xbf7f32a1	-0.9968663
42	0xbf6c4fbf	-0.9230918
43	0xbe937a24	-0.28804123
44	0x3e7975eb	0.24361388
45	0x3f9b892c	1.2151237
46	0x3d640816	0.055671774
47	0xbdd3a561	-0.10334278
48	0xbef23053	-0.47302493
49	0x3d3787e5	0.044807333
50	0xbef60e13	-0.48057613
51	0x3e64f625	0.22359522
52	0x3f23671f	0.63829225
53	0xbeb78552	-0.35843903
54	0xbf688df7	-0.9084162
55	0xbf9d04df	-1.2267112
56	0xbf19f1fb	-0.6013486
57	0x3f061d7f	0.5238876
58	0x3e7c58ba	0.24643221
59	0x3e4b6007	0.1986085
60	0xbf8a1974	-1.0789018
61	0xbe2cb5e2	-0.16866258
62	0x3f968241	1.17585
63	0x3fadd4ad	1.3580528
64	0x3f95d077	1.1704243
65	0xbd04a2e8	-0.032381922
66	0x3b9d3e0a	0.0047986554
67	0x3f830578	1.0236044
68	0x3fb8d4ed	1.443998
69	0x3f61aa13	0.8815014
70	0xbf287b70	-0.6581335
71	0xbf136376	-0.5757364
72	0xbf0096bd	-0.5023001
73	0xbe541f5e	-0.2071509
74	0xbf476fcd	-0.7790497
75	0x3d918a1d	0.07106421
76	0x3c8cffd6	0.017211836
77	0xbed07d97	-0.40720817
78	0xbf336925	-0.7008231
79	0xbf375837	-0.7161898
80	0x3c189e9e	0.009315161
81	0xbdd856cb	-0.105634294
82	0xbea7f69b	-0.32805333
83	0xbf63b271	-0.88944155
84	0xbf1ee4e7	-0.6206803
85	0xbe1e64d8	-0.15468156
86	0x3b0898e8	0.0020843092
87	0xbd5ba0e7	-0.053620245
88	0xbeabc955	-0.33552042
89	0xbeba5ca0	-0.36398792
90	0xbdfb9b65	-0.122854985
91	0xbec0cd2f	-0.37656543
92	0xbe18d40e	-0.14924642
93	0x3df1ba99	0.11803169
94	0x3f06cb0f	0.5265359
95	0xbd16d668	-0.036825567
96	0xbea7464d	-0.32670823
97	0x3e289397	0.16462551
98	0xbd94e1b2	-0.072696105
99	0x3e6fab9a	0.23405305
100	0xbe1749a5	-0.14774187
101	0x3f98469f	1.1896552
102	0xbf76383d	-0.9617956
103	0x3ea4599f	0.32099625
104	0xbe931a4a	-0.28730994
105	0x3f53e9ba	0.82778513
106	0xbf3cc796	-0.73742044
107	0xbfe6f56a	-1.8043644
108	0x40466763	3.1000602
109	0xbfb45cea	-1.4090855
110	0x3fede4f3	1.8585495
111	0xc07adba5	-3.919656
112	0xc02c6ecd	-2.6942627
113	0x40ad661c	5.4187145
114	0xbf1ee252	-0.6206409
115	0x3f948c58	1.160533
116	0xc0571113	-3.3604171
117	0xc0251fc4	-2.5800638
118	0x4068634b	3.6310604
119	0x3f8c8a46	1.0979698
120	0x3eda7dc1	0.42674068
121	0x3d91b877	0.07115262
122	0xbf77a1dd	-0.9673136
123	0x3ea543f0	0.32278395
124	0x3e2d680e	0.16934225
125	0x3f9e3ff1	1.2363263
126	0x3fd5db5b	1.6707567
127	0x3f9d561d	1.2291905
128	0x3ea1e172	0.31617314
129	0xbf861c4c	-1.0477386
130	0x3f340f80	0.7033615
131	0x3eb2ed85	0.34946838
132	0xbea9e4ab	-0.33182272
133	0xbfc5cc34	-1.5452943
134	0x3e016d25	0.12639292
135	0xbf85cdf9	-1.0453483
136	0xc056677c	-3.3500662
137	0xc07010a5	-3.751016
138	0xbf80dfc8	-1.0068293
139	0x3fa5689f	1.2922553
140	0xbe3ccfaa	-0.18438593
141	0xbb8f4fc5	-0.004373523
142	0x3e5b8d97	0.21440731
143	0x3f5bf6d3	0.859235
144	0x3f5ff6ba	0.8748585
145	0x3f4291dc	0.76003814
146	0x3da0c99a	0.078509524
147	0x3d689565	0.0567831
148	0x3eefff75	0.46874586
149	0x3edbc451	0.42923215

conv1.bias f4 [6]
0	0x3e0938cf	0.13400577
1	0xbca145e5	-0.019686649
2	0x3d743eb7	0.059630122
3	0xbe16d612	-0.14730099
4	0xbe0bcbda	-0.13651982
5	0xbdc72f7e	-0.09725855

bn1.weight f4 [6]
0	0x3fef9e85	1.8720251
1	0x40a6aa0a	5.2082567
2	0x3f9620a6	1.1728714
3	0x3fd5b857	1.6696881
4	0x40385af6	2.8805518
5	0x40446118	3.0684261

bn1.bias f4 [6]
0	0xbfde835a	-1.7383835
1	0xc02cb4e5	-2.698541
2	0x3f343145	0.7038768
3	0xbf6271fb	-0.8845517
4	0x3e17265c	0.14760727
5	0xbf455d7a	-0.7709576

bn1.running_mean f4 [6]
0	0xbfb75d1a	-1.4325287
1	0x405f9188	3.4932575
2	0xbf3e05c5	-0.74227554
3	0x3fc3ad30	1.5287228
4	0x3e5d2232	0.21595076
5	0x3f81befe	1.0136411

bn1.running_var f4 [6]
0	0x4121551e	10.083281
1	0x420f2dae	35.79461
2	0x4111a288	9.1021805
3	0x40ea0c9f	7.3140407
4	0x41d11e2a	26.139729
5	0x4121d551	10.114579

conv2.weight f4 [16, 6, 5, 5]
0	0xbdcf0f06	-0.10110287
1	0xbe2702f7	-0.16309725
2	0x3e83853c	0.25687587
3	0x3ca938f6	0.020657044
4	0x3c8a234f	0.01686254
5	0xbda3782f	-0.079819076
6	0xbe57595b	-0.2103018
7	0xbe92e4ce	-0.2869019
8	0xbd513192	-0.051072665
9	0xbea940f9	-0.33057383
10	0x3e80d7cf	0.2516465
11	0x3e3fb2e7	0.1872059
12	0xbec2ddf7	-0.3805997
13	0x3c0633a2	0.008191021
14	0xbf23acec	-0.6393573
15	0x3ea9adac	0.33140314
16	0x3ec2b009	0.3802493
17	0x3d0ac586	0.03387978
18	0x3e16113f	0.14655016
19	0xbe8143f5	-0.2524716
20	0xbe9b12b9	-0.30287722
21	0xbe583f2b	-0.21117847
22	0xbe0692c2	-0.13141921
23	0xbe4d66ec	-0.20058793
24	0xbe49290f	-0.19644569
25	0xbc4bfe0b	-0.012450705
26	0xbf8e85d6	-1.1134593
27	0xbdd7db57	-0.10539883
28	0x3f6e60ba	0.93116343
29	0x3f2ea33d	0.6821783
30	0x3ed198aa	0.40936786
31	0xbfac496b	-1.3459905
32	0xbf706ae2	-0.9391309
33	0xbd896a38	-0.06709713
34	0xbed2b981	-0.41157153
35	0x3f2b7c4a	0.66986525
36	0xbd8fd256	-0.0702254
37	0x3ed0441e	0.4067697
38	0xbdd1e194	-0.10248104
39	0xbf99028a	-1.19539
40	0xbed01003	-0.40637216
41	0x3f505de3	0.8139326
42	0x3f3f544a	0.7473799
43	0x3e51dcfc	0.20494455
44	0xbf7a1b34	-0.9769776
45	0xbfa878d6	-1.3161876
46	0x3f944ec4	1.1586537
47	0x3fab66fb	1.3390802
48	0x3eb23c46	0.3481161
49	0xbf7db73d	-0.99107724
50	0xbcf47412	-0.029840503
51	0xbd8ccc10	-0.06874859
52	0xbed6fdc9	-0.41990498
53	0xbf1bfcdc	-0.6093271
54	0xbf055368	-0.5208039
55	0x3eba5383	0.3639184
56	0x3ef95140	0.486948
57	0xbea2bdc0	-0.31785393
58	0xbecc0720	-0.39849186
59	0xbeb4a914	-0.35285246
60	0x3e66cf06	0.2253991
61	0x3ee7b6e7	0.4525673
62	0xbe7a2e04	-0.24431616
63	0x3d13d68e	0.036093287
64	0xbd6d428f	-0.057924803
65	0x3f0007d7	0.5001196
66	0x3ad4e314	0.0016241991
67	0x3eb0b395	0.3451201
68	0x3eafef86	0.3436243
69	0x3d2c6ecc	0.04209785
70	0xbf153dbb	-0.5829732
71	0xbf707e60	-0.9394283
72	0xbe899d6e	-0.26877922
73	0x3d4a27c0	0.049354315
74	0x3ea8029b	0.32814488
75	0xbe7e7505	-0.24849327
76	0xbeeaef22	-0.4588557
77	0x3e435cd0	0.19078374
78	0x3f0553f0	0.52081203
79	0x3dd94e6c	0.10610661
80	0xbeccc97d	-0.39997473
81	0xbeb5d76a	-0.3551591
82	0x3eb0c3fd	0.34524527
83	0x3ecad033	0.39611968
84	0xbda6d8cf	-0.08146822
85	0xbee6b3fe	-0.45059198
86	0xbe960da4	-0.29307282
87	0x3dd10884	0.10206702
88	0x3d66dd29	0.05636326
89	0xbe12e417	-0.14344822
90	0xbcde4a94	-0.027135171
91	0x3df4599a	0.11931153
92	0x3e359568	0.17732775
93	0xbd6c7022	-0.057724126
94	0xbe9ba79a	-0.30401307
95	0x3e9a0925	0.30085102
96	0x3eda2436	0.42605752
97	0x3e8684bc	0.26273143
98	0xbe17ae40	-0.14812565
99	0xbe4e253a	-0.20131388
100	0xbf888859	-1.066661
101	0x3f2dab27	0.6783928
102	0xbf784375	-0.9697793
103	0xbe84ffb4	-0.25976336
104	0x3f002d65	0.50069267
105	0x3fee3401	1.860962
106	0x3ed2c923	0.4116908
107	0xbe713103	-0.23553853
108	0xbd9e695b	-0.07734939
109	0x3e152b16	0.14567217
110	0x3fd58a04	1.6682744
111	0xbf0b7f1c	-0.5449083
112	0x3e1f493b	0.15555279
113	0x3eeea1f4	0.46607935
114	0x3a8093a0	0.0009809621
115	0xbf408d14	-0.7521527
116	0xbec90343	-0.392603
117	0x3ec2a82e	0.38018936
118	0xbd5575cf	-0.052114304
119	0xbecc478c	-0.39898336
120	0xc01d056b	-2.4534557
121	0xbec974f8	-0.39347053
122	0xbe81d5d5	-0.25358453
123	0x3e0a989a	0.13534775
124	0x3ee52fcd	0.44763032
125	0xbe865e04	-0.26243603
126	0xbf1ef8b7	-0.6209826
127	0xbd781188	-0.060563594
128	0x3ee52824	0.44757187
129	0xbefa7dc6	-0.48924083
130	0x3eed5027	0.46350214
131	0xbf96340c	-1.1734633
132	0xbf03a0e1	-0.51417357
133	0xbe78c9dc	-0.24295753
134	0x3f1ddc36	0.6166414
135	0x3f06c523	0.52644557
136	0xbf18de60	-0.5971432
137	0x3e3cfb0c	0.18455142
138	0xbe5b193a	-0.21396342
139	0xbe9263d5	-0.2859179
140	0xbed9f891	-0.42572454
141	0x3f4f9afd	0.8109587
142	0x3dbe2b4e	0.092856035
143	0xbf45c55f	-0.7725429
144	0xbf43eeb4	-0.7653611
145	0xbd879b00	-0.06621361
146	0x3fdd021d	1.726627
147	0x3e50bebf	0.20385264
148	0xbf1c7a9e	-0.611246
149	0xbf55db47	-0.83537716
150	0xbd992356	-0.07477443
151	0xbd1d35d6	-0.03838142
152	0x3d7f8ffe	0.06239318
153	0xbe94328d	-0.28944817
154	0xbf2220c7	-0.63331264
155	0xbe044ed0	-0.1292069
156	0x3db8bf57	0.0902087
157	0x3c6a7ece	0.014312459
158	0xbd42e080	-0.04757738
159	0xbec9f800	-0.3944702
160	0x3d9c1d05	0.076227225
161	0x3eb14bd7	0.34628174
162	0xbe606602	-0.21913913
163	0xbcc6de35	-0.024275878
164	0xbdf68cde	-0.12038587
165	0x3e2c6cd0	0.16838384
166	0x3ed818a7	0.42206308
167	0xbd7c4df0	-0.061597764
168	0x3dbd8e75	0.09255687
169	0x3dec888c	0.11549482
170	0xbe1103cf	-0.14161609
171	0x3d9203b5	0.07129613
172	0xbea87a7b	-0.32905945
173	0x3e1d590f	0.15366004
174	0xbe05cc5c	-0.13066238
175	0x3f9bf0db	1.2182878
176	0x3efac6e2	0.4897986
177	0xbf24c928	-0.6436944
178	0xbf1d8669	-0.6153322
179	0x3f1baeac	0.60813403
180	0xbe68aa3d	-0.22721191
181	0xbe8b2bc1	-0.2718182
182	0xbefb0e3a	-0.49034292
183	0xbf03756c	-0.51351047
184	0xbf16b750	-0.5887346
185	0x3eb8a2a3	0.36061582
186	0x3e3025f9	0.17201985
187	0xbf12db04	-0.5736544
188	0xbef6bef7	-0.4819257
189	0x3ed33d00	0.41257477
190	0xbd9883e0	-0.07447028
191	0x3e08171a	0.13290063
192	0xbc542402	-0.012948038
193	0x3d819a07	0.063282065
194	0x3f4331dd	0.7624796
195	0xbeb9931b	-0.36245045
196	0xbebb3d0b	-0.3657001
197	0xbe6e39aa	-0.23264185
198	0x3eaf7fab	0.3427709
199	0x3fc7073e	1.5549085
200	0xbea7f644	-0.32805073
201	0x3eb9ac1e	0.36264127
202	0x3ead8a7c	0.33894718
203	0xbeb8789e	-0.36029524
204	0xbf216ae1	-0.6305371
205	0xbec5a5b7	-0.38602993
206	0x3e846ce7	0.25864336
207	0x3e8bc665	0.272998
208	0xbb7b0aa5	-0.0038305905
209	0xbea11243	-0.31459245
210	0xbe806dc3	-0.25083742
211	0xbe73cdaa	-0.23808923
212	0xbe9f4f11	-0.3111501
213	0xbf194b89	-0.5988088
214	0xbea8c487	-0.32962438
215	0x3f12c9b4	0.57339025
216	0xbdb34128	-0.08752662
217	0xbd6a6e75	-0.057234246
218	0xbdcc73a9	-0.09982998
219	0xbdbdc58a	-0.09266193
220	0xbe0a4dc8	-0.13506234
221	0xbeb92465	-0.3616058
222	0xbde6ff6a	-0.11279185
223	0xbda4b456	-0.08042209
224	0x3d3078db	0.043084007
225	0xbd504283	-0.05084468
226	0x3e4c8650	0.19973111
227	0x3dbc0a27	0.09181624
228	0xbd634bda	-0.05549226
229	0xbec9a1b7	-0.3938119
230	0x3e76d17d	0.24103351
231	0x3e108487	0.14113055
232	0xbbab8227	-0.005234021
233	0x3d6b36ba	0.05742524
234	0x3e595045	0.21222027
235	0x3e30810d	0.17236729
236	0xbb62bc46	-0.0034597083
237	0xbdd3c9c8	-0.10341221
238	0x3dd28b84	0.10280517
239	0xbbeaf8c2	-0.0071707675
240	0x3c749bae	0.014929695
241	0x3d94bbb3	0.07262363
242	0x3ccbbad2	0.024869356
243	0x3e6fc299	0.23414077
244	0x3ea66f9d	0.3250703
245	0xbdc97d9d	-0.09838412
246	0xbcf4877b	-0.029849758
247	0x3e0eecee	0.13957569
248	0x3e842568	0.2580979
249	0x3e14a676	0.14516625
250	0x3ce8d611	0.028422387
251	0x3fa7387c	1.3064113
252	0x3ec783cc	0.3896774
253	0x3e6ed45b	0.23323195
254	0x3daa5f4c	0.08318958
255	0xbf1f2c97	-0.62177414

conv2.bias f4 [16]
0	0x3b03d878	0.002011804
1	0xbca780d3	-0.02044717
2	0xbc6e42fa	-0.014542336
3	0x3d90b6e5	0.07066134
4	0xbd95c4a6	-0.07312898
5	0x3d75b4d4	0.059986904
6	0x3a828543	0.0009957928
7	0xbce66b46	-0.028127324
8	0x3ca89ab0	0.020581573
9	0xbda552d4	-0.08072439
10	0xbcc4dc3b	-0.024030795
11	0xbb1e6c54	-0.0024173455
12	0x3d0f7140	0.035020113
13	0x3d07cc2a	0.03315369
14	0xbd529ccd	-0.051419068
15	0x3c39780b	0.011320124

bn2.weight f4 [16]
0	0x3ff678e1	1.9255639
1	0x401d090d	2.4536774
2	0x4004b222	2.0733724
3	0x4015599f	2.333595
4	0x3fb8b992	1.4431632
5	0x3fdaccfe	1.7093809
6	0x400016e3	2.001397
7	0x3ffd73d4	1.9800973
8	0x4025cbc6	2.5905623
9	0x3fe0d9bb	1.7566446
10	0x3ffbd77c	1.9675136
11	0x3fcb503c	1.588386
12	0x3fce2998	1.6106443
13	0x401ac4bf	2.4182584
14	0x3fadb471	1.3570691
15	0x3fda5ba0	1.7059212

bn2.bias f4 [16]
0	0xbeb1ab9a	-0.34701234
1	0xbfa21de8	-1.2665377
2	0xbf2483b4	-0.64263463
3	0xbf53870e	-0.8262795
4	0xbf5690b6	-0.8381456
5	0xbe80dee0	-0.2517004
6	0xbe9eed31	-0.31040338
7	0xbf3edbd5	-0.7455419
8	0xbf9dcf6a	-1.2328923
9	0xbe419484	-0.1890431
10	0xbe751aca	-0.23936
11	0xbe438d0a	-0.19096771
12	0xbfaed332	-1.3658202
13	0xbf7da137	-0.9907412
14	0xbea3aad9	-0.31966284
15	0xbef26168	-0.4733994

bn2.running_mean f4 [16]
0	0xc0aaaf11	-5.3338704
1	0xbf0445fb	-0.5166928
2	0xbf94fbd4	-1.1639352
3	0xc1343606	-11.263189
4	0x3fde0762	1.7346003
5	0xc0d7121e	-6.7209616
6	0xc0b8fc8a	-5.7808275
7	0xc1063f5f	-8.390471
8	0xc0abf910	-5.374153
9	0xc046e1a0	-3.107521
10	0xc01f74ea	-2.4915109
11	0xc062a527	-3.54133
12	0x3fcc6742	1.5969012
13	0xc1165afe	-9.397215
14	0xc079052e	-3.8909411
15	0xc0a1b3b9	-5.053189

bn2.running_var f4 [16]
0	0x4254ccb9	53.199924
1	0x421532ca	37.2996
2	0x423d7b1c	47.370224
3	0x42881c90	68.055786
4	0x421458f0	37.086853
5	0x4282fe84	65.4971
6	0x42382ece	46.045708
7	0x42248a98	41.135345
8	0x425944a7	54.317043
9	0x422375bb	40.86497
10	0x4227710a	41.86039
11	0x41ae9a6b	21.8254
12	0x41a0ace8	20.084427
13	0x428b1f3f	69.56103
14	0x41cfdea9	25.98372
15	0x420797d5	33.898273

conv3.weight f4 [120, 16, 5, 5]
0	0xbe433561	-0.19063331
1	0x3c143e2f	0.009048029
2	0x3dbe613a	0.09295888
3	0xbe504e92	-0.20342472
4	0x3df2ec6f	0.118615024
5	0xbdfddf04	-0.123960525
6	0x3c0f0b1e	0.008730678
7	0xbba2fcc2	-0.0049739787
8	0x3d5bb4c7	0.0536392
9	0x3d84b178	0.06479162
10	0x3d4476ba	0.04796479
11	0xbe23448d	-0.15944119
12	0xbd1c937e	-0.038226597
13	0xbde327bc	-0.11091563
14	0x3d2314f3	0.0398149
15	0xbe48812d	-0.19580527
16	0x3ded4984	0.115862876
17	0xbd468eab	-0.048475903
18	0xbd6077cd	-0.05480175
19	0x3e112046	0.14172468
20	0x3e7b2891	0.24527194
21	0xbe54afdb	-0.20770209
22	0xbd27fbac	-0.041011497
23	0x3da6b82d	0.081405975
24	0x3d717171	0.058946077
25	0xbe09991a	-0.1343731
26	0xbc270019	-0.010192894
27	0xbd9eaa6f	-0.077473514
28	0xbe519b1e	-0.20469329
29	0xbdb60909	-0.08888442
30	0x3b02402e	0.001987468
31	0xbcf74d6d	-0.030188287
32	0x3d96e2e9	0.073674984
33	0xbc083b1e	-0.008314876
34	0x3e131685	0.1436406
35	0xbb8cbf38	-0.004295256
36	0xbdd8e7d0	-0.1059109
37	0x3d6380bf	0.055542704
38	0xbda1eaec	-0.07906136
39	0xbc3e6737	-0.011621288
40	0xbde6af9e	-0.11263965
41	0xbd52948c	-0.051411197
42	0xbd2b8a86	-0.041880153
43	0xbd851576	-0.06498234
44	0xbcc25315	-0.023721257
45	0xbdd6e6d5	-0.104932465
46	0x3a292147	0.0006451797
47	0x3d242bc2	0.040080793
48	0xbbd7b9f3	-0.006583446
49	0x3d0876b1	0.033316318
50	0x3e1aa70b	0.15102784
51	0x3e167762	0.14693978
52	0xbca7948c	-0.020456575
53	0xbdc6ff77	-0.09716695
54	0xbe247e22	-0.16063741
55	0x3da107d2	0.0786282
56	0x3dd424da	0.103585914
57	0x3dd3df5b	0.10345336
58	0x3d4eb7cd	0.050468255
59	0xbe14936c	-0.14509362
60	0x3bc423c4	0.005985709
61	0x3db174e0	0.0866487
62	0x3d7d34df	0.061818
63	0x3d2167fc	0.039405808
64	0xbcbf90c0	-0.023384452
65	0xbdb544a3	-0.08850982
66	0x3d685a36	0.056726657
67	0xbcf51fb8	-0.029922351
68	0x3df18645	0.11793188
69	0xbe64b65e	-0.22335193
70	0xbdac31e2	-0.08407952
71	0x3be66776	0.0070313765
72	0xbdf31d35	-0.11870805
73	0x3cb8a93c	0.022541635
74	0xbe907fa7	-0.2822239
75	0xbe03ce24	-0.12871605
76	0x3d3a163e	0.045431368
77	0x3e6a2f9c	0.22869724
78	0x3e2eba6b	0.170633
79	0x3a84d793	0.0010135047
80	0x3c92cec3	0.017920857
81	0x3e2113b3	0.15730171
82	0x3e9d8d0c	0.30771673
83	0x3d9666fd	0.07343862
84	0x3dfab574	0.12241641
85	0xbcad4f53	-0.021155989
86	0x3bc94b9c	0.0061430465
87	0x3da38b16	0.07985513
88	0x3dc169ff	0.09444045
89	0x3d9b9fb3	0.075988196
90	0xbcd8e289	-0.026475208
91	0x3c52a0d8	0.012855731
92	0x3e2ef0ea	0.17084089
93	0x3d8ace26	0.06777601
94	0x3d792dd1	0.06083471
95	0xbdffb8fc	-0.12486455
96	0x3c7e43ed	0.015519124
97	0x3e0bc38e	0.13648817
98	0x3bfc0abb	0.007691709
99	0xbcf8b257	-0.030358477
100	0xbda9fea4	-0.08300522
101	0x3cd3392a	0.025784094
102	0x3d408cd7	0.047009315
103	0x3db0cee4	0.08633211
104	0xbe464070	-0.19360518
105	0xbda8a3dd	-0.082343794
106	0x3c9a2c5d	0.018819982
107	0x3d935a95	0.071950115
108	0x3dd993fd	0.1062393
109	0xbe10e687	-0.14150439
110	0x3c9d3ff0	0.019195527
111	0x3cf9cadb	0.030492237
112	0xbd48cc7c	-0.049023136
113	0x3dcba906	0.09944348
114	0xbd9d5b8f	-0.07683479
115	0x3d7df569	0.06200162
116	0x3c4420e3	0.011970731
117	0x3ba52df4	0.0050408784
118	0x3d3fd19f	0.04683077
119	0x3dac3f0c	0.08410463
120	0x3d98f13c	0.07467887
121	0xbc2e5c53	-0.010642129
122	0xbd4eb742	-0.050467737
123	0xbd30f3fb	-0.043201428
124	0xbe09c58c	-0.13454264
125	0x3e9913f8	0.29898047
126	0xbaf15664	-0.0018412587
127	0xbd058a34	-0.032602504
128	0xbe13099b	-0.14359133
129	0x3c2660c1	0.010154904
130	0x3ea590dd	0.32337084
131	0x3d33e565	0.04391994
132	0xbda18048	-0.07885796
133	0xbdc6309a	-0.09677239
134	0x3d265e17	0.040617075
135	0x3dd61fee	0.10455309
136	0xbd836b28	-0.06416923
137	0xbc89a420	-0.016801894
138	0xbd904c71	-0.0704583
139	0xbc842223	-0.016129559
140	0xbdafc17d	-0.08581827
141	0xbde3f5bd	-0.11130855
142	0xbd4cd02e	-0.050003223
143	0xbcd09e52	-0.025466118
144	0x3d273d42	0.040829904
145	0xbe183c12	-0.14866665
146	0xbe544611	-0.20729853
147	0xbbe1e460	-0.0068936795
148	0xbd960773	-0.073256396
149	0xbd1daaa4	-0.038492814
150	0x3e5b3369	0.2140633
151	0x3c11ee3b	0.008906896
152	0x3d81a90e	0.06331073
153	0x3dca372d	0.09873805
154	0xbc3d3343	-0.011547866
155	0x3d3db64c	0.04631643
156	0xbd10ddb9	-0.0353677
157	0x3daa78fd	0.08323858
158	0x3e3ebbce	0.1862633
159	0xbd93c46e	-0.072152
160	0xbdfed02a	-0.12442048
161	0xbb355c58	-0.002767345
162	0x3e3adeed	0.18249102
163	0x3e2b145d	0.16706987
164	0xbd29aea0	-0.0414263
165	0xbb0e1c0d	-0.00216842
166	0x3d9f2e41	0.07772494
167	0xbc7347ca	-0.014848659
168	0x3e02fff1	0.12792946
169	0xbd54dd86	-0.051969074
170	0xbd8cb2c9	-0.06870038
171	0x3df47d45	0.11937956
172	0x3c8f4a73	0.017491555
173	0x3dfde23c	0.123966664
174	0xbdbe2dc1	-0.092860706
175	0x3df38c1b	0.11891957
176	0x3dd4eab2	0.10396327
177	0xbc92fba5	-0.01794226
178	0xbda1a172	-0.078921214
179	0x3dba7dd8	0.09106034
180	0x3dab0201	0.083499916
181	0xbbf3b939	-0.0074378517
182	0xbd3f1732	-0.04665298
183	0x3db43803	0.08799746
184	0xbcaec05c	-0.021331958
185	0x3ddcbf00	0.10778618
186	0x3e5d3c0d	0.21604939
187	0xbb314d8a	-0.0027054274
188	0x3e0262c5	0.1273299
189	0x3db86477	0.09003537
190	0x3db3b169	0.08774073
191	0x3daf5ad4	0.08562246
192	0xbb8d50db	-0.0043126172
193	0x3d937907	0.072008185
194	0x3d8c0fbb	0.06838938
195	0x3c9ce7f9	0.019153582
196	0xbc4c5852	-0.012472229
197	0xbd1fe9d1	-0.039041344
198	0x3e225e60	0.15856314
199	0xbbac9fb9	-0.005268064
200	0x3dbda68a	0.092602804
201	0xbe45e399	-0.19325103
202	0x3d461f2f	0.048369583
203	0x3e6636ad	0.22481795
204	0x3e01a75a	0.12661496
205	0xbdc0a316	-0.09406106
206	0xbc01ec6c	-0.0079299025
207	0x3de121c4	0.109927684
208	0x3e133f67	0.14379655
209	0x3dda42b8	0.10657257
210	0xbc10dce6	-0.008841729
211	0xbe345119	-0.17609061
212	0xbc88ed21	-0.016714634
213	0x3dd088e7	0.10182362
214	0x3d9e8af1	0.07741345
215	0xbe16f2b3	-0.1474102
216	0x3d838d3c	0.06423423
217	0xbd8b6933	-0.068071745
218	0xbd8cf003	-0.06881716
219	0x3d990bf7	0.07472985
220	0x3d0d4e58	0.034498543
221	0x3ead80ac	0.3388723
222	0x3e2b381b	0.16720621
223	0x3d82e959	0.06392164
224	0x3d4f36ca	0.05058936
225	0xbcfd8ece	-0.030951884
226	0xbb890ff0	-0.004182808
227	0xbdfb7bd3	-0.12279477
228	0x3e3083db	0.17237799
229	0xbcf348d0	-0.029697806
230	0xbd89125f	-0.06692957
231	0xbe3cd947	-0.1844226
232	0xbcebffe2	-0.028808538
233	0xbd98414b	-0.07434329
234	0x3d76fe7c	0.06030129
235	0x3cc89da2	0.024489228
236	0xbe65bc40	-0.22435093
237	0x3d2f6445	0.042820234
238	0x3e1c8ed7	0.15288864
239	0x3e22e70d	0.15908451
240	0xbdb616b2	-0.088910475
241	0xbdefeb45	-0.11714796
242	0x3d140e58	0.03614649
243	0xbb7c5edb	-0.0038508687
244	0x3cc0df72	0.023544047
245	0xbdfe4071	-0.12414635
246	0xbe33431a	-0.17506066
247	0xbe0b867d	-0.13625522
248	0xbe87269b	-0.2639664
249	0xbd5eff85	-0.0544429
250	0x3c3e6790	0.011621371
251	0x3e802595	0.25028673
252	0x3deb720c	0.11496362
253	0xbdbd07bb	-0.0922999
254	0xbc91e122	-0.017807547
255	0x3d7574cf	0.05992585

conv3.bias f4 [120]
0	0x3ce8d24d	0.028420592
1	0x3b3af92f	0.0028529873
2	0x3c794ba3	0.015215787
3	0x3cb57c4d	0.022153998
4	0xbcc2e190	-0.023789197
5	0xbd1cd24b	-0.03828649
6	0x3c9fb6fa	0.01949643
7	0x3c0af2fc	0.008480784
8	0xbb54af24	-0.0032453025
9	0xbc2f4560	-0.010697693
10	0xbd235493	-0.039875578
11	0x3c9c62fd	0.01909017
12	0xbc8147f7	-0.015781386
13	0x3cb5e077	0.02220176
14	0xbd39ff0b	-0.045409244
15	0x3bbd0bed	0.005769244
16	0xbc0a2b42	-0.008433165
17	0xbc8de2a0	-0.017319977
18	0xbd09c755	-0.033637363
19	0xbcd5fcfa	-0.026121605
20	0x3cb7afd3	0.022422707
21	0x3ca1bde0	0.01974386
22	0x3cc989c7	0.02460183
23	0xbd42bf0f	-0.04754549
24	0x3cdf9380	0.027292013
25	0x3ca4a220	0.020096838
26	0xbce1869a	-0.027530003
27	0xbcd8389a	-0.026394177
28	0xbd0ef190	-0.03489834
29	0x3d2972d0	0.04136926
30	0xbcd14ba0	-0.025548756
31	0xbd01ff7b	-0.031737786
32	0x3c703904	0.014662031
33	0x3c66bc33	0.014082956
34	0x3b048808	0.0020222683
35	0xbc9d34f9	-0.019190298
36	0xbd0abc4b	-0.033870976
37	0x3d0aaf2b	0.03385846
38	0x3cf774cd	0.030207062
39	0x3c013067	0.007885075
40	0xbd14bd57	-0.03631338
41	0xbd1d0c22	-0.03834165
42	0xbcb46bba	-0.022024024
43	0x3be92453	0.007114926
44	0xbc57dc4c	-0.013175081
45	0xbbb21711	-0.0054348786
46	0xbc6179fa	-0.013761992
47	0x3cf8c350	0.03036657
48	0x3af2f44e	0.0018535943
49	0xbd278e55	-0.040907223
50	0xbd21021d	-0.039308656
51	0x3d1512b0	0.036394775
52	0xbd34a1b7	-0.044099536
53	0xbd04aaf5	-0.0323896
54	0xbc7dff00	-0.015502691
55	0x3c66099a	0.014040375
56	0xbd1f1657	-0.038839664
57	0x3be87e80	0.007095158
58	0x3b2ec75e	0.0026669125
59	0xbd369095	-0.044571478
60	0xbb8eb5dc	-0.0043551754
61	0xbcda93f7	-0.026681883
62	0x3cd8304a	0.026390214
63	0xbb734c0f	-0.0037124192
64	0xbd464f82	-0.04841567
65	0xbbb5c29c	-0.005546881
66	0x3b50d980	0.0031867921
67	0xbd00fbb0	-0.031490028
68	0xbbdb362f	-0.006689809
69	0xbd2a07f8	-0.041511506
70	0xbd4644c8	-0.04840544
71	0xbd1c828a	-0.03821043
72	0xbd281668	-0.041036993
73	0xbd17e960	-0.037087798
74	0x3bb9d9c0	0.00567171
75	0xbcdb9aa0	-0.02680713
76	0xbcb6223a	-0.022233117
77	0x3d139188	0.03602746
78	0xbc32492d	-0.010881704
79	0xbce3ca77	-0.027806504
80	0xbd21f94d	-0.039544392
81	0xbb389fce	-0.0028171423
82	0x39352367	0.00017274694
83	0xbc43f3a6	-0.011959946
84	0xbd1afd37	-0.03783914
85	0x3b85bbc1	0.00408122
86	0xbd3d5c42	-0.046230562
87	0x3c4bfe66	0.01245079
88	0xbd0d086d	-0.034431864
89	0xbd443fd0	-0.04791242
90	0xbcb9a7a3	-0.022662943
91	0x3d199cb3	0.037502956
92	0x3cce60d7	0.025192661
93	0xbc0485d3	-0.008088547
94	0x3d2fe2bd	0.042940844
95	0x3ba463c6	0.0050167767
96	0xbcb5b5da	-0.02218144
97	0xbd30e038	-0.04318258
98	0x3d37f0b0	0.04490727
99	0x3d118760	0.035529494
100	0x3d3a3525	0.04546084
101	0x3d4a9a6b	0.04946367
102	0xbd1414c3	-0.036152612
103	0xbb535a64	-0.0032249922
104	0x3d0d25c8	0.03445986
105	0xbc0f47da	-0.008745158
106	0xbc2eb83a	-0.01066404
107	0xbca33a7d	-0.01992535
108	0xbc3b645b	-0.011437501
109	0x3c51cca0	0.012805134
110	0xbcf99be7	-0.030469848
111	0xbbffee6c	-0.0078104045
112	0x3cdf0640	0.02722466
113	0xbb2d7bb4	-0.0026471438
114	0x3d133538	0.035939425
115	0x3b6ea673	0.003641513
116	0xbd0ad073	-0.0338902
117	0x3c9a3e17	0.018828435
118	0x3c6276d8	0.01382228
119	0x3cf0d14d	0.029396677

bn3.weight f4 [120]
0	0x3f82508b	1.018083
1	0x3fa067ed	1.2531716
2	0x3f8536f4	1.0407395
3	0x3fa4ba98	1.2869444
4	0x3f848b03	1.0354923
5	0x3f98ea74	1.194655
6	0x3fa757ee	1.3073709
7	0x3f97e824	1.1867719
8	0x3f55f48b	0.8357627
9	0x3f91ee58	1.1400862
10	0x3fa8e763	1.3195614
11	0x3f80f881	1.0075837
12	0x3f9f359f	1.2438239
13	0x3f8e7f76	1.1132648
14	0x3f77a3fe	0.9673461
15	0x3f849404	1.0357671
16	0x3f92a080	1.1455231
17	0x3f77e37d	0.96831495
18	0x3f87288e	1.0559251
19	0x3fa3893a	1.2776253
20	0x3f919e5d	1.1376454
21	0x3f871dc3	1.0555958
22	0x3fa0a6d8	1.2550917
23	0x3f895338	1.0728521
24	0x3f8d516b	1.1040472
25	0x3f8e73cf	1.1129092
26	0x3f9430a8	1.1577349
27	0x3f9000ce	1.1250246
28	0x3f91ab15	1.1380335
29	0x3fa84dfa	1.3148797
30	0x3f805d8a	1.0028546
31	0x3f9de434	1.2335267
32	0x3fa0ae1b	1.2553133
33	0x3f7f7678	0.99790144
34	0x3fa07af3	1.2537521
35	0x3fb0aa33	1.3801941
36	0x3f794e67	0.9738526
37	0x3fb50dd5	1.4144846
38	0x3f9c7039	1.2221748
39	0x3f92a868	1.1457644
40	0x3f880d96	1.0629146
41	0x3f990803	1.195557
42	0x3f8b8b5d	1.0901905
43	0x3f7d0ca5	0.9884742
44	0x3f93c2dd	1.1543843
45	0x3f855a71	1.0418226
46	0x3f928c3a	1.1449044
47	0x3f870f05	1.0551459
48	0x3f8836bf	1.0641707
49	0x3f7669c9	0.96255165
50	0x3f9bd5d6	1.2174633
51	0x3f8e3edb	1.1112932
52	0x3fa66b73	1.3001541
53	0x3f35822b	0.70901746
54	0x3fb4917d	1.41069
55	0x3fa19475	1.262343
56	0x3f920fbe	1.1411054
57	0x3f8cfdbd	1.1014935
58	0x3f933f95	1.1503779
59	0x3f434a15	0.76284915
60	0x3f9fd1dc	1.2485919
61	0x3fa4e829	1.288335
62	0x3fa7ae33	1.3100036
63	0x3fa62086	1.2978675
64	0x3f841d16	1.0321376
65	0x3fa5c70e	1.2951372
66	0x3fa54c40	1.2913895
67	0x3f91e4b5	1.1397921
68	0x3f8355a0	1.0260506
69	0x3f9a6023	1.2060589
70	0x3f82a816	1.0207546
71	0x3fb18eda	1.387172
72	0x3f97c54f	1.1857089
73	0x3f7498a8	0.95545435
74	0x3f7d67a1	0.9898625
75	0x3fa89cf7	1.3172902
76	0x3f9677af	1.1755275
77	0x3f8eea4b	1.116525
78	0x3f8b4acc	1.0882201
79	0x3f8775e6	1.0582855
80	0x3f9dbfea	1.2324193
81	0x3f5134f9	0.81721455
82	0x3f8fb7b0	1.1227932
83	0x3f7832a2	0.9695226
84	0x3f952177	1.1650838
85	0x3f9530b7	1.1655492
86	0x3fa24117	1.2676114
87	0x3fad7157	1.3550214
88	0x3f8b7855	1.0896097
89	0x3f98c151	1.1933995
90	0x3f956e21	1.1674234
91	0x3f7725d0	0.9654207
92	0x3f8ed3ce	1.1158388
93	0x3f88ddf7	1.0692738
94	0x3fa9238d	1.3213974
95	0x3f87793a	1.058387
96	0x3f881853	1.0632423
97	0x3f9501db	1.1641191
98	0x3fa05187	1.252488
99	0x3f80db76	1.0066974
100	0x3fa891b5	1.3169466
101	0x3f8b46bc	1.0880961
102	0x3f9b2c81	1.2122957
103	0x3f8c3b8a	1.095567
104	0x3f924049	1.1425868
105	0x3f954c8a	1.1663983
106	0x3f93c1f2	1.1543562
107	0x3f820995	1.0159174
108	0x3f8f6fa3	1.1205944
109	0x3f8e55c2	1.1119921
110	0x3f963c29	1.173711
111	0x3f82c25c	1.0215564
112	0x3f9ff091	1.249529
113	0x3f88e8cb	1.0696043
114	0x3f619f2f	0.8813352
115	0x3f9cf946	1.2263572
116	0x3f95d04c	1.1704192
117	0x3fa14937	1.2600468
118	0x3fa7f72b	1.3122305
119	0x3f88563f	1.065132

bn3.bias f4 [120]
0	0xbf18007d	-0.59375745
1	0xbf1b5555	-0.6067708
2	0xbe74fdaa	-0.2392489
3	0xbe71c534	-0.23610383
4	0x3c14afa9	0.009075084
5	0xbee880d5	-0.4541079
6	0xbe8e7aef	-0.27828166
7	0xbe3f0f81	-0.18658258
8	0xbe211630	-0.1573112
9	0xbdee7c5e	-0.11644815
10	0xbe167f6e	-0.14697048
11	0xbf0a3c6c	-0.53998446
12	0xbf07e997	-0.53090805
13	0xbd364655	-0.044500668
14	0xbdaf451a	-0.08558102
15	0xbd9ffca8	-0.07811862
16	0xbcde994b	-0.027172705
17	0xbe173e95	-0.14769967
18	0xbec43a3c	-0.3832568
19	0xbe8fb3ee	-0.28066963
20	0xbe8672b0	-0.26259375
21	0xbeb1c17e	-0.34717935
22	0xbe95db33	-0.29268798
23	0xbe644c07	-0.22294627
24	0xbe9288ac	-0.28619897
25	0xbe945930	-0.28974295
26	0xbe3bca87	-0.18338977
27	0xbe8aba31	-0.27095178
28	0xbed4eb84	-0.41585934
29	0xbeb58de8	-0.35459828
30	0xbebc679b	-0.36797795
31	0xbe91ecd2	-0.28500992
32	0xbeba71db	-0.3641499
33	0xbe132618	-0.1437
34	0xbea1905f	-0.3155546
35	0xbeedf249	-0.4647391
36	0xbe5b8100	-0.21435928
37	0xbeb71ca4	-0.3576404
38	0xbe277412	-0.16352871
39	0xbef00416	-0.46878117
40	0xbe6d6210	-0.23181939
41	0xbdd76f28	-0.10519248
42	0xbd857e05	-0.06518177
43	0xbe9594c4	-0.29215062
44	0xbe466e7f	-0.19378088
45	0xbe9db24a	-0.30800086
46	0xbe3ad520	-0.18245363
47	0xbe122c0a	-0.14274612
48	0xbf12f48c	-0.574044
49	0xbec27969	-0.37983254
50	0xbe9ae4b0	-0.302526
51	0xbdd3eb42	-0.10347606
52	0xbebb7861	-0.3661528
53	0xbda9f0f4	-0.08297911
54	0xbeb7e738	-0.35918593
55	0xbf1c328e	-0.6101464
56	0xbe8ee945	-0.27912346
57	0xbe814936	-0.25251168
58	0xbe45118f	-0.1924498
59	0xbd464179	-0.048402283
60	0xbee9defb	-0.45677933
61	0xbed919d9	-0.42402533
62	0xbf36436e	-0.7119664
63	0xbe9cf382	-0.30654532
64	0xbe4060e5	-0.18786962
65	0xbf07d7b4	-0.5306351
66	0xbe976f87	-0.29577276
67	0xbf1b0605	-0.6055606
68	0xbd955626	-0.07291822
69	0xbe9e2db9	-0.3089426
70	0xbeac16a1	-0.33611014
71	0xbeafefd6	-0.34362668
72	0xbec4eaed	-0.38460484
73	0xbee00ac0	-0.43758202
74	0xbef7f03e	-0.48425478
75	0xbeb66373	-0.3562275
76	0xbe79d0bf	-0.24396037
77	0xbd2d0282	-0.04223872
78	0xbebe9904	-0.37226117
79	0xbe94d75b	-0.29070553
80	0xbe990db0	-0.29893255
81	0x3dc8240c	0.097725004
82	0xbeca35db	-0.39494213
83	0xbe725db4	-0.23668557
84	0xbe7ac3ff	-0.24488829
85	0xbeabf1a7	-0.33582804
86	0xbf119299	-0.56864315
87	0xbe1b4731	-0.15163876
88	0xbec5d67b	-0.38640198
89	0xbecbb373	-0.39785346
90	0xbdcf4827	-0.10121184
91	0xbe9f05ef	-0.31059214
92	0xbe402d61	-0.1876731
93	0xbe4f4c26	-0.20243892
94	0xbf21f83c	-0.632694
95	0xbd2fa31b	-0.04288016
96	0xbebe5621	-0.37175086
97	0xbede5e57	-0.4343135
98	0xbeaa48d3	-0.33258685
99	0x3d7669d0	0.060159504
100	0xbed32451	-0.41238645
101	0xbecd501f	-0.4010019
102	0xbe7dcb1d	-0.24784513
103	0x3bf8b034	0.0075893644
104	0xbe439382	-0.19099239
105	0xbf1aa4c4	-0.6040766
106	0xbe65d557	-0.22444664
107	0xbeaab13e	-0.3333835
108	0x3cbef92a	0.02331217
109	0xbd41fbc3	-0.04735924
110	0x3d9e2517	0.07721918
111	0xbebc66ba	-0.36797124
112	0xbe88b15e	-0.2669782
113	0xbe40b676	-0.18819603
114	0x3dc39982	0.09550764
115	0xbe2619c6	-0.1622077
116	0x3ebac9f9	0.36482218
117	0xbee7248b	-0.45145068
118	0xbe9f6c9c	-0.3113755
119	0xbe21c1e6	-0.15796623

bn3.running_mean f4 [120]
0	0x3ff13997	1.88457
1	0x4071a9ab	3.7759807
2	0xbe8aaad2	-0.2708345
3	0xc02abd65	-2.6678097
4	0xc03d02b1	-2.9532893
5	0xbe2548bc	-0.16141027
6	0x400d8d00	2.211731
7	0xbf81c0a0	-1.013691
8	0x3fc07ca6	1.503804
9	0xbff636cb	-1.9235471
10	0x3fcedc58	1.6160994
11	0x40307582	2.757172
12	0xbf4ea622	-0.8072225
13	0xc010fccc	-2.2654295
14	0xbfa758ef	-1.3074015
15	0xc03b3396	-2.9250236
16	0xc04293bf	-3.0402677
17	0xbf3ddc64	-0.74164414
18	0xbed6028d	-0.4179882
19	0xbf94af50	-1.1616001
20	0x3fee8e28	1.8637133
21	0xc00a4c01	-2.160889
22	0x3f911caf	1.1336879
23	0x3fc5d9f3	1.5457138
24	0xbded8ceb	-0.115991436
25	0xc000c4f2	-2.0120206
26	0x3fdfca20	1.7483559
27	0x3f13c8ba	0.5772816
28	0xc00604a0	-2.0940323
29	0xc0431f06	-3.0487685
30	0xc068e6f5	-3.6390965
31	0xbcef7a44	-0.029233105
32	0xc053e072	-3.310574
33	0x3e9222eb	0.28542265
34	0xc075f7a6	-3.8432403
35	0xc0258fbf	-2.5868986
36	0xc036615a	-2.8496919
37	0xbfb12020	-1.3837929
38	0xbf03ca98	-0.5148101
39	0xbfdeb946	-1.7400291
40	0xbfb2ef13	-1.397921
41	0xbd7ea058	-0.062164634
42	0xbfe6430e	-1.7989213
43	0xbdebe87f	-0.115189545
44	0x3fdd7b9c	1.7303348
45	0xc00f0bc3	-2.2350929
46	0xc0702f1a	-3.7528749
47	0xc086d35a	-4.2132998
48	0xc036ead5	-2.858083
49	0xbf1e812d	-0.61915857
50	0xc092e846	-4.5908537
51	0xbee4d642	-0.44694716
52	0xbfbece03	-1.490662
53	0xbe16823e	-0.14698121
54	0xc000f6b1	-2.0150568
55	0xc049af68	-3.151331
56	0xc09010d0	-4.5020523
57	0x3f1e3a45	0.6180766
58	0xc02e48fd	-2.7232049
59	0xc01f099f	-2.4849622
60	0xbef09975	-0.46992078
61	0xc02c8a6e	-2.695949
62	0xbf626227	-0.8843102
63	0xbf4d4d2a	-0.8019587
64	0xbf8ad9aa	-1.0847676
65	0x3e6f9420	0.23396349
66	0x3f101e1e	0.56295955
67	0xc054118a	-3.3135705
68	0xc0d1de24	-6.558367
69	0xc0e50e75	-7.158015
70	0xbfbfd293	-1.4986137
71	0xbfca44ad	-1.5802208
72	0xbeeec37a	-0.46633512
73	0x409dabe3	4.9272323
74	0xbfee4a10	-1.8616352
75	0xc0a0171c	-5.002821
76	0xbfc1f2f3	-1.5152267
77	0xbdf4f1b2	-0.11960162
78	0x3e7ac007	0.24487315
79	0xbfbd2ceb	-1.4779333
80	0x3fcf79cf	1.6209048
81	0x3f5c312c	0.8601253
82	0xc0066246	-2.0997481
83	0xbe94bc8c	-0.290501
84	0xbfaeae81	-1.3647004
85	0x3f3dfbf6	0.74212587
86	0x3f875470	1.0572643
87	0x3ef89b10	0.48555803
88	0xc042368f	-3.03458
89	0x3db71e1b	0.08941289
90	0xbf8982d2	-1.0743048
91	0xbf9c7f99	-1.222644
92	0xc015752d	-2.3352768
93	0xbfe5319f	-1.7905768
94	0x3f987513	1.1910728
95	0xbfec66a7	-1.8468827
96	0x4094abe3	4.6459823
97	0xbcb6030a	-0.022218246
98	0x3df3fefa	0.11913867
99	0xbfc5e8ad	-1.5461632
100	0x3fcb1e34	1.5868592
101	0xc0bfdce0	-5.9957123
102	0xc05018a7	-3.2515047
103	0xc00bee94	-2.1864367
104	0xc02c1f33	-2.6894042
105	0xbf5ee200	-0.870636
106	0xc0855e36	-4.1677504
107	0x3ecf86d1	0.40532544
108	0xbe3a7d2d	-0.18211813
109	0x408fd577	4.4948077
110	0xc00d3753	-2.2065017
111	0x3e0a40b3	0.13501243
112	0x404a216d	3.1582901
113	0xbf32eef8	-0.6989589
114	0xbfe7f5d0	-1.8121891
115	0xbee83aa1	-0.4535723
116	0xbf1fd009	-0.6242681
117	0xc00dfd87	-2.218599
118	0x4053b1eb	3.3077343
119	0xbdc532e2	-0.09628846

bn3.running_var f4 [120]
0	0x40aa6943	5.3253493
1	0x40eec29f	7.4612575
2	0x40b57686	5.670718
3	0x40cbcbe4	6.368639
4	0x40c92079	6.285214
5	0x40aa2e97	5.318187
6	0x41152e94	9.323872
7	0x40aae471	5.340386
8	0x40d0a964	6.5206776
9	0x40c873bd	6.264128
10	0x40e0f8ce	7.0303717
11	0x40914337	4.539455
12	0x40960259	4.6877866
13	0x40c4616a	6.1368914
14	0x40dea927	6.9581485
15	0x40b1ceaf	5.55648
16	0x40febef8	7.9608116
17	0x40a8da6e	5.276664
18	0x40e56e7e	7.169738
19	0x40b22484	5.5669575
20	0x403f5b8c	2.9899626
21	0x409c1e33	4.8786864
22	0x40e5b005	7.1777368
23	0x40e0e9fe	7.0285635
24	0x40671c00	3.611084
25	0x40633c26	3.5505462
26	0x40cfdb89	6.4955487
27	0x40afd75b	5.4950385
28	0x40885a1e	4.2610006
29	0x40f3bd01	7.616822
30	0x4052c9ec	3.2935743
31	0x4165d1a5	14.363683
32	0x40e0bbb4	7.022913
33	0x40ca0889	6.313542
34	0x40d4c735	6.6493173
35	0x40bc76f8	5.8895226
36	0x40822dd1	4.068093
37	0x40c5f8ea	6.186635
38	0x40df4692	6.9773645
39	0x4076aa82	3.854157
40	0x4081d86b	4.057668
41	0x40f9d5e6	7.8073606
42	0x40d5aeef	6.677604
43	0x40b823d9	5.754376
44	0x40c9be97	6.3045154
45	0x40b859ab	5.760946
46	0x409da6f8	4.926632
47	0x409083c5	4.516085
48	0x40669b77	3.6032388
49	0x403116bb	2.7670124
50	0x40904e37	4.5095477
51	0x407aee19	3.9207823
52	0x414e1660	12.880463
53	0x40e0e072	7.027398
54	0x411b6d3a	9.714167
55	0x409db2d2	4.9280787
56	0x40dcdd4b	6.9020133
57	0x40d06df7	6.5134234
58	0x40f594ca	7.6744127
59	0x4082e0e6	4.0899534
60	0x411dd596	9.864645
61	0x411f004c	9.9375725
62	0x40bd2167	5.9103274
63	0x41260cc5	10.378118
64	0x40b2ee9a	5.591626
65	0x40d02faa	6.5058184
66	0x41101ddb	9.007289
67	0x4079d17a	3.9034104
68	0x40aea1cc	5.4572506
69	0x411b877e	9.720579
70	0x406f5faf	3.740215
71	0x41217ac1	10.092469
72	0x40d654c2	6.6978464
73	0x40ac3071	5.3809133
74	0x402ad8ff	2.6694944
75	0x4114ccab	9.299968
76	0x40bb719c	5.8576183
77	0x40f06cf0	7.513298
78	0x40b922e0	5.785507
79	0x40822a4e	4.067664
80	0x40d3e440	6.6216125
81	0x410c7527	8.778602
82	0x40a72af4	5.2239933
83	0x40abcd66	5.368823
84	0x410029ed	8.010236
85	0x4090386b	4.506887
86	0x40e7e362	7.2465067
87	0x414efc70	12.93663
88	0x40790a64	3.8912592
89	0x40cb0b19	6.3451047
90	0x40a90a5e	5.2825155
91	0x40683eb4	3.628827
92	0x409691c3	4.705293
93	0x4099e822	4.8095865
94	0x41025a3e	8.147032
95	0x40d6738e	6.701606
96	0x40b98906	5.7979765
97	0x40ae8561	5.4537816
98	0x40f38669	7.6101575
99	0x40defc3d	6.968291
100	0x40a41cd4	5.128519
101	0x4092eba6	4.5912657
102	0x409c6a69	4.8879895
103	0x4100d9b4	8.05315
104	0x4126fa3a	10.43609
105	0x408d9cb1	4.4253774
106	0x408625ae	4.1920996
107	0x4083f79d	4.123976
108	0x40875ff7	4.2304645
109	0x40b3159e	5.596389
110	0x413d5a12	11.83449
111	0x40ddb205	6.927981
112	0x41037b69	8.217629
113	0x40d0b15d	6.521651
114	0x40f92b66	7.7865477
115	0x4112664a	9.149973
116	0x4183fb12	16.497593
117	0x40b0a0fb	5.519651
118	0x40e61ffc	7.1914043
119	0x40c3ee10	6.1228104

fc1.weight f4 [84, 120]
0	0x3daef96e	0.08543669
1	0xbe6abe1b	-0.22924082
2	0x3e75b797	0.23995815
3	0xbc889849	-0.016674178
4	0x3e8110db	0.25208172
5	0x3df95e10	0.12176144
6	0x3b6ba077	0.0035953799
7	0x3e45b965	0.19309004
8	0xbe4d8c90	-0.20073152
9	0xbd49c91d	-0.049264062
10	0x3e82d906	0.255562
11	0xbd8a5a5b	-0.06755515
12	0x3ec13f1e	0.37743467
13	0xbc75ec8a	-0.015010009
14	0xbe3ab46e	-0.18232891
15	0xbe573f87	-0.21020328
16	0xbc10488e	-0.008806361
17	0xbe17b920	-0.14816713
18	0x3d80caae	0.06288658
19	0x3e06a0eb	0.13147323
20	0xbe817be2	-0.25289828
21	0xbe0f9950	-0.14023328
22	0xbe4da476	-0.20082268
23	0xbd89c22d	-0.06726489
24	0x3ebad319	0.3648918
25	0xbe72deeb	-0.23717849
26	0x3eb824fe	0.35965723
27	0xbe297888	-0.16549885
28	0xbbf4d8bb	-0.0074721253
29	0xbd9a3cc0	-0.075311184
30	0xbd5af138	-0.0534527
31	0xbd501921	-0.050805215
32	0x3e8207c7	0.2539656
33	0xbd9bad31	-0.07601393
34	0x3e972d80	0.295269
35	0x3cc4ceae	0.024024334
36	0x3ddac2db	0.10681697
37	0x3e22c77d	0.15896411
38	0xbd0f4fd4	-0.03498824
39	0x3d8e2027	0.06939726
40	0x3d57d12b	0.052689712
41	0x3d6db546	0.058034204
42	0xbe9eca35	-0.31013647
43	0xbece0b71	-0.40243104
44	0xbe3f1a00	-0.18662262
45	0xbe4a2d0d	-0.19743748
46	0x3ddbab88	0.10726076
47	0xbd7c4771	-0.06159157
48	0x3e2f9087	0.17144977
49	0x3e07dfd4	0.13268977
50	0x3d2ac296	0.041689478
51	0x3e329634	0.1744011
52	0x3e38abeb	0.18034332
53	0xbd9c47fc	-0.076309174
54	0x3d32c5f3	0.04364581
55	0xbdde082a	-0.10841401
56	0xbe8d51e4	-0.2760154
57	0xbd715d40	-0.05892682
58	0x3c706b81	0.014674068
59	0xbdd214b3	-0.10257854
60	0xbd5c6b95	-0.053813536
61	0xbe6ee204	-0.23328406
62	0xbda0dfed	-0.078552105
63	0xbe5ba09a	-0.21447983
64	0x3edfc480	0.43704605
65	0xbe914641	-0.28373912
66	0xbe051c5f	-0.12999104
67	0x3e8c3458	0.27383685
68	0x3e82cfb4	0.2554909
69	0xbc67088d	-0.01410116
70	0x3e37ef4a	0.17962375
71	0x3df780e6	0.12085132
72	0xbe079125	-0.13238962
73	0xbd765149	-0.060136113
74	0xbe528578	-0.20558727
75	0xbd4466e9	-0.047949705
76	0x3c033857	0.008009038
77	0x3de1bef8	0.110227525
78	0x3e921172	0.28528935
79	0xbe6e8968	-0.23294604
80	0x3ec80b62	0.39071184
81	0xbdd8d7eb	-0.10588058
82	0x3e99e249	0.30055454
83	0x3dad61f1	0.084659465
84	0xbce28d81	-0.027655365
85	0xbe748967	-0.2388054
86	0xbe015f35	-0.12633975
87	0xbe91b4ec	-0.28458345
88	0xbd9b0348	-0.07568985
89	0xbed12150	-0.40845728
90	0x3e2edc2a	0.17076173
91	0x3eb2fde5	0.3495933
92	0xbe8c10a0	-0.27356434
93	0xbce7b3e6	-0.028284024
94	0xbc18ef47	-0.009334392
95	0xbd844678	-0.06458753
96	0xbd600a8d	-0.054697562
97	0x3e4ca31a	0.19984093
98	0x3eba0632	0.36332852
99	0xbddb9f56	-0.1072375
100	0x3e0e492b	0.13895099
101	0xbd1628bf	-0.036659952
102	0x3e1e691b	0.15469782
103	0xbeb28871	-0.34869722
104	0xbda2cea6	-0.07949571
105	0x3ed9079f	0.42388627
106	0x3d4330fb	0.047654133
107	0x3b69c5da	0.0035670907
108	0xbdfd4917	-0.123674564
109	0xbe692a42	-0.22770026
110	0xbea40a72	-0.3203922
111	0xbc41a204	-0.011818413
112	0x3ed90239	0.42384508
113	0x3e2e8f69	0.17046894
114	0x3d8d9a3a	0.06914182
115	0x3e468618	0.1938709
116	0xbe2cd85b	-0.16879408
117	0xbe86c60c	-0.26322973
118	0xbe3b18a9	-0.18271126
119	0xbe039cd8	-0.128528
120	0xbdea878e	-0.11451636
121	0xbe075e28	-0.13219512
122	0xbd955148	-0.07290894
123	0x3eb690de	0.356574
124	0x3ef6d3c4	0.4820844
125	0x3dce3ab4	0.100697905
126	0xbedfda59	-0.43721274
127	0x3d3006a2	0.042975076
128	0x3b65e9a8	0.0035081897
129	0x3d04c226	0.032411717
130	0xbe2ea21b	-0.17054026
131	0xbb64f813	-0.0034937903
132	0x3dc9fda1	0.09862829
133	0x3cecef3d	0.028922671
134	0x3e21edf3	0.15813427
135	0x3d4808f8	0.04883668
136	0x3da07383	0.07834532
137	0xbdf27e47	-0.11840492
138	0x3e9ab5b3	0.3021675
139	0x3e134a1a	0.14383736
140	0x3cc0cb6a	0.023534495
141	0xbd671a83	-0.056421768
142	0xbdb7753f	-0.0895791
143	0x3dbf25be	0.093333706
144	0x3de79cbe	0.11309193
145	0x3d82900e	0.063751325
146	0x3e43633f	0.19080828
147	0xbcf8ad62	-0.030356113
148	0x3c407af4	0.011748064
149	0xbd9412ff	-0.07230186
150	0x3e9e13f7	0.30874607
151	0xbe87f0d3	-0.26550922
152	0xbe6cac41	-0.23112585
153	0x3d96e49f	0.07367825
154	0xbe7589fe	-0.23978421
155	0xbdc0beb7	-0.09411376
156	0x3d653a79	0.055963967
157	0x3e785d3d	0.24254318
158	0x3e5a501f	0.21319626
159	0x3e7922e9	0.24329723
160	0x3d8844e3	0.06653764
161	0xbe9c565f	-0.30534646
162	0x3d41590a	0.047204055
163	0xbe016139	-0.12634744
164	0xbe6bda82	-0.23032573
165	0xbe4b1417	-0.19831882
166	0x3c3301f4	0.010925759
167	0x3d9bee3c	0.07613799
168	0xbdd2a5a4	-0.102855
169	0xbca7028a	-0.020386953
170	0x3e6768c5	0.2259856
171	0xbc9a597f	-0.018841503
172	0xbe2ed1df	-0.17072247
173	0x3c567f4f	0.013091876
174	0xbc331831	-0.010931061
175	0xbd7dc373	-0.061953973
176	0xbe147b13	-0.14500074
177	0xbba2ea8f	-0.004971809
178	0x3dbd7857	0.09251469
179	0xbe1ade83	-0.15123944
180	0xbd7e16ba	-0.062033392
181	0x3e531040	0.20611668
182	0x3e65ae05	0.22429664
183	0xbe60c749	-0.21951021
184	0x3e11d58d	0.1424162
185	0x3eb571cb	0.3543838
186	0xbde02325	-0.10944203
187	0xbcac886a	-0.021061141
188	0xbd988b8d	-0.07448492
189	0x3e2afd1e	0.16698119
190	0x3b54aa49	0.003245013
191	0x3e4265ac	0.18984097
192	0x3eb7a4d6	0.35867947
193	0xbdbf6615	-0.093456425
194	0x3d810389	0.062995024
195	0xbe2b59dc	-0.16733497
196	0x3dc676ce	0.09690629
197	0x3d4a79b2	0.049432464
198	0xbd48365b	-0.048879962
199	0x3e3a43cb	0.18189923
200	0xbd1b1b09	-0.03786758
201	0xbe82a76a	-0.25518352
202	0xbdd3def6	-0.10345261
203	0x3e12aa2b	0.14322726
204	0xbe177320	-0.1479001
205	0x3d959caa	0.07305272
206	0x3e408cb2	0.18803671
207	0xbe23b486	-0.15986833
208	0x3c9b2853	0.018940127
209	0x3e36862e	0.17824623
210	0x3d8f22ea	0.06989081
211	0xbe6d5f00	-0.23180771
212	0x3e916121	0.28394416
213	0xbc4d8e70	-0.012546167
214	0xbe17dfca	-0.14831463
215	0xbe22cc98	-0.15898359
216	0xbe6b53d6	-0.229812
217	0xbe8e6b75	-0.27816358
218	0xbe70b0c1	-0.23504926
219	0x3d2628ea	0.040566362
220	0x3ee93f39	0.45556048
221	0x3c334c47	0.010943479
222	0x3cf3bcfe	0.029753204
223	0xbea87f76	-0.32909745
224	0xbe553767	-0.20821916
225	0x3e823d6a	0.2543748
226	0x3c3bdeaa	0.0114666615
227	0xbd0183bf	-0.031619783
228	0x3e6fd86e	0.23422405
229	0xbe2541d3	-0.16138391
230	0x3d4a5425	0.049396653
231	0x3dae2bca	0.08504446
232	0xbc834e80	-0.016028643
233	0xbe2e3a6c	-0.17014474
234	0x3d8e3d46	0.06945281
235	0x3de390bf	0.111115925
236	0xbddaee69	-0.106900044
237	0xbe42b294	-0.19013435
238	0xbe344488	-0.17604268
239	0x3d6c140c	0.057636306
240	0x3bb83c7f	0.005622446
241	0x3e7d0d74	0.24712163
242	0xbe1ccc89	-0.15312399
243	0xbe6f18c4	-0.23349291
244	0xbe9ca86b	-0.30597243
245	0x3dc5138e	0.096228704
246	0xbd832372	-0.06403245
247	0x3d4b2d6c	0.049603865
248	0xbe75383f	-0.23947237
249	0xbe4f2e9b	-0.20232622
250	0xbc1e7e2a	-0.009673635
251	0xbe1a920a	-0.15094772
252	0xbe0ffd71	-0.14061524
253	0x3dc20259	0.09473104
254	0x3d89559f	0.06705784
255	0x3dfe1b56	0.12407558

fc1.bias f4 [84]
0	0xbc8e0474	-0.017336108
1	0xbb6df92f	-0.0036311855
2	0x3d12742e	0.03575533
3	0x3cd189c7	0.025578393
4	0x3d94777f	0.072493546
5	0x3d73fc42	0.059566744
6	0xbc917234	-0.017754652
7	0x3d4dd5d5	0.050252754
8	0xbd0b2f07	-0.033980396
9	0x3cfb8b89	0.030706184
10	0x3cccaf62	0.024985973
11	0x3d94c68a	0.07264431
12	0x3d2157f6	0.039390527
13	0x3bbba9e5	0.00572704
14	0xbd078b92	-0.03309209
15	0x3cfebbfc	0.031095497
16	0x3caf328f	0.021386413
17	0x3b2f8679	0.0026783033
18	0x3c2156fd	0.0098474
19	0xbdb3c1b0	-0.08777177
20	0xbc74605e	-0.014915554
21	0x3db9c6c8	0.09071118
22	0xbd2ab21b	-0.04167376
23	0x3d8261dc	0.063663214
24	0xbca860bd	-0.02055394
25	0xbd3f8733	-0.046759795
26	0x3d33613e	0.04379391
27	0xbd96f76e	-0.07371412
28	0xbdac787b	-0.08421417
29	0xbd10ed90	-0.035382807
30	0xbd312eea	-0.04325763
31	0xbd349691	-0.044088904
32	0xbd73966e	-0.059469633
33	0x3d86c284	0.0658007
34	0x3d83139e	0.06400226
35	0xb9e94b21	-0.00044497199
36	0xbcd3e9fb	-0.025868407
37	0xbd4114c4	-0.047138944
38	0xbbf8dcb2	-0.0075946683
39	0xbccd16a7	-0.025035216
40	0x3d141c01	0.03615952
41	0x3d8c3041	0.06845141
42	0xbcb57a14	-0.022152938
43	0x3dad97dd	0.08476231
44	0x3a21e9df	0.0006176512
45	0x3d3db787	0.046317603
46	0xbd3bfe42	-0.045896776
47	0x3d9a402c	0.07531771
48	0x3cfc78b3	0.030819273
49	0x3cbb2633	0.022845363
50	0x3db367ec	0.08760056
51	0xbd2f5424	-0.042804852
52	0xbca99f03	-0.020705706
53	0x3db7e448	0.08979088
54	0xbb858903	-0.004075171
55	0xbd99e16d	-0.075137
56	0xbcccea9c	-0.025014214
57	0xbd222c37	-0.039592948
58	0x3d25c091	0.04046685
59	0xbd4459af	-0.04793709
60	0xbd94ab1b	-0.07259198
61	0xbcf6a967	-0.030110074
62	0xbd952e4f	-0.07284223
63	0xbd60f488	-0.054920703
64	0x3c925868	0.017864421
65	0xbcd62db2	-0.026144836
66	0xbd9cf02b	-0.07662996
67	0xbd36e159	-0.044648502
68	0xbd8df156	-0.06930797
69	0x3cd25e0b	0.025679609
70	0x3d6251ae	0.055253677
71	0xbda2c91c	-0.07948515
72	0xbd3112e9	-0.043230925
73	0xbd442dcf	-0.04789525
74	0x3d1af1c2	0.037828214
75	0x3d942d3c	0.0723519
76	0xbc8e66bf	-0.017382978
77	0x3da6336a	0.08115275
78	0xba033219	-0.00050047186
79	0x3da47c74	0.0803155
80	0xbd040cef	-0.032238897
81	0x3ce43754	0.027858414
82	0x3d5ffc75	0.05468412
83	0x3bdee85f	0.006802603

bn4.weight f4 [84]
0	0x3f9eb829	1.2399951
1	0x3f788561	0.9707852
2	0x3f47e897	0.7808928
3	0x3f50f789	0.8162771
4	0x3f7c5fe3	0.9858381
5	0x3f7ccaa1	0.9874669
6	0x3f40cd5d	0.7531336
7	0x3f623d6d	0.8837498
8	0x3f3a6bce	0.72820747
9	0x3f9feb67	1.2493714
10	0x3f751eea	0.95750296
11	0x3f40a4e6	0.75251615
12	0x3f68f9cb	0.91006154
13	0x3f671e7d	0.90280896
14	0x3f8c9d0c	1.0985427
15	0x3f91f0c8	1.1401606
16	0x3f9fa758	1.2472944
17	0x3f910984	1.1331029
18	0x3f635bc9	0.8881193
19	0x3f935409	1.151002
20	0x3f4cdfd0	0.8002901
21	0x3f44627f	0.76712793
22	0x3f4d52b3	0.80204314
23	0x3f59e82a	0.8511988
24	0x3f5b3564	0.8562834
25	0x3f70ee3d	0.9411352
26	0x3f8c0630	1.0939388
27	0x3f7ac2fd	0.9795378
28	0x3f361be1	0.7113629
29	0x3f883484	1.0641026
30	0x3f959a8a	1.1687787
31	0x3f594e5e	0.84885204
32	0x3f5f4f21	0.87230116
33	0x3f442831	0.7662383
34	0x3f914e8f	1.1352099
35	0x3f75404a	0.9580122
36	0x3f804600	1.0021362
37	0x3f94a5bc	1.1613078
38	0x3f866254	1.0498757
39	0x3f5c26c3	0.85996646
40	0x3f4a19e3	0.7894575
41	0x3f889d05	1.0672919
42	0x3f96f426	1.1793258
43	0x3f823751	1.0173131
44	0x3f58295b	0.84438103
45	0x3f691e54	0.910619
46	0x3f52536b	0.82158536
47	0x3f8ef022	1.1167033
48	0x3f574ac8	0.8409848
49	0x3f63399a	0.8875977
50	0x3f7ac79a	0.9796082
51	0x3f73985a	0.95154345
52	0x3f2f49c2	0.6847192
53	0x3f58c689	0.8467794
54	0x3f8cd0a6	1.1001174
55	0x3f713f7a	0.9423748
56	0x3f623c7e	0.88373554
57	0x3fa08a24	1.2542157
58	0x3f8a1d73	1.0790237
59	0x3f3edd0f	0.7455606
60	0x3f88ab0b	1.0677198
61	0x3f82b564	1.0211606
62	0x3f60d787	0.8782887
63	0x3fa61e27	1.2977952
64	0x3f86df98	1.0536985
65	0x3f54be6d	0.83103067
66	0x3fa0e79f	1.2570685
67	0x3f8c9c63	1.0985225
68	0x3f87a5a1	1.0597421
69	0x3faa6319	1.3311492
70	0x3f4b9245	0.79520065
71	0x3f37724a	0.71658766
72	0x3f49189e	0.7855319
73	0x3f5fb7fa	0.873901
74	0x3f93f8bf	1.1560286
75	0x3f84a0a8	1.0361528
76	0x3f6b4526	0.9190239
77	0x3f5def66	0.8669342
78	0x3f62fd95	0.88668185
79	0x3f578ce8	0.8419938
80	0x3f89836a	1.0743229
81	0x3f915566	1.1354187
82	0x3f5950ea	0.8488909
83	0x3f8a11e5	1.0786711

bn4.bias f4 [84]
0	0x3e1f15c7	0.15535651
1	0xbd453d7f	-0.04815435
2	0xbe2adc20	-0.16685534
3	0xbe191a3e	-0.14951417
4	0x3e8be695	0.27324358
5	0x3d88bf1c	0.06677076
6	0x3e05a6b2	0.1305187
7	0xbef8e8cd	-0.48615113
8	0xbce8b62e	-0.028407183
9	0xbdc91c3f	-0.09819841
10	0x3e300756	0.17190298
11	0xbce69a42	-0.028149728
12	0x3ddb94f4	0.1072177
13	0x3dd2414a	0.10266359
14	0xbe336466	-0.17518768
15	0xbe31cdf3	-0.1736372
16	0xbd4044f2	-0.04694075
17	0x3dc6a56f	0.09699523
18	0xbc46ee89	-0.012141832
19	0xbcb1e43b	-0.021715274
20	0xbb0df18c	-0.0021658866
21	0x3ce9641e	0.028490122
22	0xbd51e9bb	-0.051248293
23	0x3e950779	0.29107264
24	0x3cf197a7	0.029491259
25	0x3d1c13e3	0.038104903
26	0x3cac03aa	0.02099784
27	0xbda871f4	-0.0822486
28	0xbe307413	-0.17231779
29	0x3e8c5646	0.2740957
30	0xbe28e4ea	-0.16493574
31	0xbb1c4e2f	-0.0023850312
32	0xbe2618e3	-0.16220431
33	0xbe4aab03	-0.19791798
34	0xbc41d923	-0.011831555
35	0x3e8cef2a	0.27526218
36	0x3e2aeae8	0.16691172
37	0xbb30f3b0	-0.0027000718
38	0xbe7ff78d	-0.24996777
39	0x3dde6c13	0.10860457
40	0x3e2d9040	0.16949558
41	0x3d1471be	0.036241286
42	0x3de6eb95	0.112754025
43	0x3ea673c2	0.3251019
44	0x3e5923dd	0.21205087
45	0xbe7f6a54	-0.24942905
46	0x3d92d4ab	0.071694694
47	0x3ca49e08	0.020094886
48	0x3ddd2f97	0.10800093
49	0x3bb44bf1	0.005502217
50	0x3d1efdfb	0.038816433
51	0x3e453da8	0.19261801
52	0x3e292a4d	0.16520043
53	0xbd0f3d62	-0.03497065
54	0xbe97b881	-0.29632953
55	0xbe63f268	-0.2226044
56	0x3c13ca17	0.00902035
57	0x3e85c0c8	0.26123643
58	0xbe809cf0	-0.25119734
59	0xbbc763f3	-0.006084913
60	0x3e74ec1e	0.23918197
61	0xbd3f6643	-0.046728384
62	0xbe38a3cd	-0.18031235
63	0x3d6fa5d0	0.05850774
64	0xbd3fc200	-0.046815872
65	0xbacd183c	-0.0015647481
66	0x3e3e9bc7	0.18614112
67	0xbe6107b5	-0.21975596
68	0xbe25b2d0	-0.16181493
69	0xbea8e15c	-0.32984436
70	0xbd5955d9	-0.053060386
71	0xbdbcb429	-0.0921405
72	0x3e49dc52	0.19712952
73	0x3e0b73b9	0.13618363
74	0x3e3d7bd3	0.18504266
75	0x3dd6aae2	0.10481812
76	0x3d9df52a	0.07712777
77	0xbe877091	-0.2645307
78	0xbe4c9f8c	-0.19982737
79	0x3e00f313	0.12592725
80	0xbe665fd4	-0.22497493
81	0x3e3cab15	0.18424638
82	0x3e851523	0.2599269
83	0xbea110cb	-0.31458125

bn4.running_mean f4 [84]
0	0xbe34ec09	-0.17668165
1	0x3de88339	0.11353154
2	0xbfaae885	-1.3352209
3	0xbf92308d	-1.1421067
4	0xbfa09a39	-1.2547065
5	0xbfd7af21	-1.685032
6	0x3f085ad0	0.5326357
7	0xbf1371ee	-0.5759572
8	0xbe5fbc47	-0.21849166
9	0xbde616c6	-0.112348124
10	0x3f066324	0.52495027
11	0xbf30cfa4	-0.69066834
12	0x3f348558	0.70515966
13	0xbf22c469	-0.6358095
14	0xbf6a524a	-0.91531813
15	0x3fcae6f6	1.5851734
16	0x3e9e0d1f	0.30869386
17	0xbf14f952	-0.5819293
18	0xbe7ba73e	-0.24575517
19	0xbd23cb70	-0.039988935
20	0xbedf294c	-0.43586195
21	0xbf960e2a	-1.1723073
22	0xc0129a71	-2.2906764
23	0x3f842c58	1.0326033
24	0x3dfa29ad	0.1221498
25	0xbc4174d8	-0.011807643
26	0xbf94058d	-1.1564194
27	0x3f170dab	0.5900523
28	0x3e3eb54c	0.18623847
29	0x3e0636a0	0.13106775
30	0xbe7e740d	-0.24848957
31	0xc00cfe7b	-2.2030323
32	0x3f2da8bf	0.6783561
33	0xbf44bcd5	-0.76850635
34	0xbdb398c8	-0.08769375
35	0x3f26cb6b	0.6515414
36	0x3f85c666	1.0451171
37	0x3e3a963e	0.18221375
38	0xbfdfeefd	-1.7494808
39	0x3eadcae7	0.33943865
40	0x3f6d6f57	0.92748016
41	0x3fbe0f5d	1.4848439
42	0x3f4c2259	0.7973991
43	0x3d343918	0.04399976
44	0x3f7267cf	0.9468965
45	0x3f7a5c61	0.9779721
46	0xbe08f3dc	-0.13374275
47	0x3f85bfcb	1.0449156
48	0x3eb2c426	0.34915274
49	0xbf7636ab	-0.96177167
50	0x3deb7bbc	0.1149821
51	0xbf6dd744	-0.92906594
52	0x3f2def59	0.6794334
53	0x40005a25	2.005502
54	0xbeddf192	-0.43348366
55	0xbed18106	-0.4091875
56	0x3ed2bb32	0.41158444
57	0x3e16b49d	0.14717336
58	0x3f090d91	0.53536326
59	0x402486da	2.5707307
60	0x3e8c1699	0.2736099
61	0x3e0b027a	0.13575163
62	0xbf9c0597	-1.2189206
63	0x3f0894c8	0.5335202
64	0xbebd9952	-0.37031037
65	0xbe85ed6e	-0.26157707
66	0x3ee86e77	0.45396778
67	0x3e3661b1	0.17810704
68	0x3d232015	0.039825518
69	0xbff25b02	-1.8934023
70	0x3fa7bfaa	1.3105366
71	0xbeff4ca6	-0.49863166
72	0xbe0087e7	-0.12551843
73	0xbf11c833	-0.56946105
74	0x3f76085e	0.9610652
75	0x3ca6038c	0.020265363
76	0x3f027466	0.5095886
77	0xbfdc8a8d	-1.7229782
78	0xbec89acf	-0.3918061
79	0x3f694a4c	0.91128993
80	0xc00588df	-2.086479
81	0x3ea25fe3	0.3171378
82	0x3f7dc705	0.99131805
83	0x3f2953c9	0.6614347
