ex1_LeNet5/lenet5_bnFalse_dpFalse_wdTrue_weights.pth (torch, 250543 bytes, 10 tensors)

conv1.weight f4 [6, 1, 5, 5]
00000000: 5391 91bf 3cd4 5cbe 74b7 27be d119 733e
00000010: 6735 923e 416c aebd 3e1b 323f 9c21 973e
00000020: bfd0 613e 2de1 08bf 5e37 8a3f 0c3b 4f3f
00000030: 0c7b 233f 4baf 573f b59c b5be dac5 abbe
00000040: 9be7 e4bd 8122 273f 6531 443f d4bf 6abe
00000050: 7534 64be 9318 efbe ade6 1f3e b19d 2e3e
00000060: 9693 8dbe 5c1e 9fbd f3a2 52be 360c 8fbf
00000070: ccbe 7a3f 80f0 473f 112f 8fbe 285e 133f
00000080: b1d2 a2bf 9dd6 50bf 6ad6 f83f bf5a 51bd
00000090: 2758 653f bad7 e33e d55c 25c0 efd2 883f
000000a0: 5bcb 3c3e 7ee3 a2be e669 f13f 72c0 a2bf
000000b0: bdb5 ecbe 995a 863e 4127 9e3d b5b6 bb3e
000000c0: 6c62 bbbe 02eb b9be 7b7b 44bf 9236 d4be
000000d0: d91f 273f 1389 943f ebf3 42bf 02d0 adbd
000000e0: a07c f4bb 20d3 5a3f 6c6f 8d3e c678 3bbf
000000f0: 0859 013f 694a fd3e da2c 223f 8e20 8abe
00000100: afd0 5c3e 6266 eb3d 5394 153f aabf ef3d
00000110: b095 9fbf d6aa 3ebf fb2f 54bf 15a8 ff3d
00000120: 1da0 b5be 7651 aebf ffaa 35bf 8d25 7dbe
00000130: a9a6 66bf da17 02be d65f 163f 4da5 0a3f
00000140: d6de 57bf cfc9 fdbf 1452 9cbf 82a1 ccba
00000150: 7224 ac3e 0a62 12bf 0bba eabf ea83 16c0
00000160: 73cf f5bf 0696 83be 9f06 ac3e 8fb7 d33e
00000170: 7733 5ebf 0900 5abf 9380 063f 9c20 063f
00000180: a968 b6bd 98fc 3ebf c3ad 983e bc33 183f
00000190: e48d 993e 4799 db3d 4b0a d4bf daf1 02c0
000001a0: 7d18 8bbf f7be fc3e 08b0 2c3f e2a2 40be
000001b0: d06a 64bf 4252 c03e 7f73 913d d888 fa3a
000001c0: bb2a 603e f1c0 333f 1cf7 333f a7df dd3d
000001d0: 4ab4 80bd 95b4 01be a11e 1ebf 3741 663e
000001e0: 0518 5ebe 1a54 febd 8688 cc3e f338 103d
000001f0: c68b ff3d 6937 d2bc b624 c5be 65bb ba3e
00000200: 0794 fd3d aa9a 2dbe 19bb 97bd fded 6c3e
00000210: 8831 12be aebd 34bf 1f6d 22bf d243 fbbe
00000220: 525c 04bf 4365 983e beb5 b73f 5a9b c53f
00000230: 6f3a 013f 1a28 c43e 6025 173f 5d49 f03e
00000240: 9648 1bbe 7dc3 3b3f dc2b 41be ccc1 7cbf
00000250: f45e d0bf c496 d8be
-1.1372474 -0.21565336 -0.16378576 0.23740317 0.28556368 -0.085167415 0.6957282 0.2951783
0.22052287 -0.5346859 1.0798147 0.80949473 0.6385963 0.8425185 -0.3547112 -0.33549386
-0.11176988 0.65287024 0.7663787 -0.22924739 -0.22285636 -0.46698436 0.1561534 0.17052342
-0.27651662 -0.077694625 -0.20569973 -1.1175601 0.9794738 0.7810135 -0.27965596 0.57565546
-1.2720548 -0.81577474 1.9440434 -0.051111933 0.89587635 0.44500524 -2.583791 1.0689372
0.18436949 -0.31814188 1.8860443 -1.271498 -0.46232405 0.26240996 0.07722331 0.36662832
-0.36598527 -0.3631211 -0.76750916 -0.41447884 0.6528297 1.1604332 -0.7615344 -0.0848694
-0.0074611455 0.854784 0.2762407 -0.7323116 0.50526476 0.49470833 0.6334969 -0.26977962
0.21563981 0.11494137 0.5842945 0.11706479 -1.2467556 -0.74479425 -0.8288571 0.12483231
-0.3547372 -1.361861 -0.70964044 -0.24721356 -0.90098053 -0.12704411 0.58739984 0.5415848
-0.84324396 -1.9827212 -1.2212548 -0.0015612098 0.33621556 -0.57180846 -1.8338026 -2.3518014
-1.9203933 -0.25700396 0.33598801 0.41350982 -0.8679728 -0.85156304 0.5253994 0.5239351
-0.08906681 -0.7460418 0.2982007 0.5945394 0.29991066 0.10722595 -1.6565641 -2.0460114
-1.0866848 0.49364445 0.674561 -0.18812135 -0.8922548 0.37562758 0.07102107 0.0019114269
0.218913 0.7021628 0.70298934 0.10833674 -0.062843874 -0.12666543 -0.61765486 0.22485815
-0.2168885 -0.12418385 0.3994791 0.03521056 0.124778315 -0.025661187 -0.3850457 0.36471096
0.123817496 -0.16953531 -0.07408733 0.2313766 -0.14276707 -0.7060193 -0.63447756 -0.4907518
-0.5170337 0.29764757 1.4352338 1.5438035 0.5047979 0.38311845 0.59041405 0.46930972
-0.15164408 0.73345166 -0.18864387 -0.9873321 -1.6278977 -0.42302525

conv1.bias f4 [6]
00000000: 2995 e7bf 8b67 39be 2de1 13c0 dab8 07c1
00000010: 99d5 0cc0 8f44 91be
-1.8092395 -0.18105905 -2.3106186 -8.48263 -2.200537 -0.2837262

conv2.weight f4 [16, 6, 5, 5]
00000000: 47a3 f33e 9f7d c3bd 6d4a 0dbe 9fdb 923d
00000010: da11 4bbd 1111 19be 6207 91be 6d93 e33c
00000020: a884 273e 26e2 0bbe 9c94 14be ebd6 5c3d
00000030: 2139 1b3e c687 133e d460 6abe 9855 b43d
00000040: 4ee9 583e 714a e83c 686a 44be d55f 98be
00000050: ffe4 20be 33e6 1ebc 2317 27b9 7007 723d
00000060: 18c3 afbe 16e0 06be d321 3d3d 78f5 c6bd
00000070: 3a1c f6bd 9091 5fbe 021f f4bd 5700 12be
00000080: 38c3 eabd 9dc2 abbd bea8 f4be 207a 44bd
00000090: b9e4 a1be 6247 55be 1c38 29be 30ff a73e
000000a0: abc0 d8be 9eb0 8d3e 0068 ca3d aacf df3e
000000b0: 129d 48bd 7d89 713e b83e dbbd d6fc 39be
000000c0: 02b9 e2be 44b5 c43e 0bb3 273e 849c a8bd
000000d0: d4fc eabe 678b 0c3f bb34 493e ffee 48bd
000000e0: e433 61be 6a9e 0cbe 6a1e b63e 20b3 103e
000000f0: 579d fe3e f9fb e5be a0b7 bcbe 9f56 4cbe
00000100: 1bf7 87be f0e7 b4bb 0ea2 73bf e7fc 503e
00000110: b221 d63d c8c4 3f3e 916f dbbe e6cf 363e
00000120: 7821 503e 60a1 5ebe d020 2f3e 9ff9 773e
00000130: 8356 373e 2ef2 0dbe 2d38 c3bd ff2f 3dbf
00000140: 4939 e9be 1769 12bf 3587 183f f257 863e
00000150: 1cf2 a13e baf9 6ebf f8b6 b3bf d422 f33e
00000160: a6cc f43e 8ad5 183f 567d 2fbf acac dd3e
00000170: 6da2 d9be a6d5 33bf 5cf7 2abf 35fc 0640
00000180: 6e3e 8a3f a732 4ebf 9a86 eebe 5b5e 5fbf
00000190: 7021 993d 6350 8aba c4f7 2b3e dee6 70be
000001a0: f7f0 803e 20e8 c6bd d230 953d dd7a adbe
000001b0: 9f05 9ebe d878 0ebe 45f9 803c 7926 393e
000001c0: a416 403e 1420 c63e 5276 ca3d 2d43 a7be
000001d0: 1683 fcbd 921e c33e b903 3d3c ff62 48bd
000001e0: 811a c43e 0a03 443e 2b91 b9bc 3264 c1be
000001f0: df83 073f 3bbb 5ebe 7861 8f3e 6fc4 4e3e
00000200: 4cb7 1b3e d0d8 ab3d 9b6a abbd d1b9 473e
00000210: fa8e e33c c771 5a3c 22f1 a33e 7a30 033f
00000220: b9e2 42bd fa4b 4fbe 14ee 6fbd 55a0 c3bd
00000230: 8b40 8d3f c6d8 bbbe b88d 05be 097d 29bf
00000240: b79a 533e 1de1 5fbd 8909 dfbe ada4 353e
00000250: 3d13 30bf 53a5 fb3e 5911 27be 8d33 bd3e
00000260: 5f86 283f 3a5e b33e 4a52 cfbd cf8e a2bd
00000270: 9fa2 b63e c45b 2f3e 5b12 c7bb 5849 c6be
00000280: 8b8a 923d 8636 053d 640b 10be 6340 8f3e
00000290: 5345 d9bc 68b3 79bc d1fe 26bd 15e6 86be
000002a0: cc8b a4bd c13b 583e 495b 1ebe 933e bdbd
000002b0: 2423 9abe a99f aebe 8586 9c3d 4c7f b73d
000002c0: 8000 8abf 0b61 70bf 60ae e93e ffcd fa3f
000002d0: b99e a2be 0f70 d43e e0fa f13e ea86 99bd
000002e0: 02e5 a23d 4623 843d 37f2 d03d 77dc 183e
000002f0: 52fb a3bd d2df 5abf 15f7 07bf f68c 28be
00000300: ff3c 96be dcf0 b4be 19ed 86bf 2b28 123f
00000310: 1ed9 e43d 65ce c1be 583f 0abe b0d7 8cbe
00000320: 4308 d0bd 2525 0abe bb42 b0be 644c bfbe
00000330: 67e6 a0be 5fcc 13be 3a7b 61be 1fa4 713e
00000340: 51a4 983e 943f a4be d938 7e3e b917 d13e
00000350: 23cf d93e 88fd 3e3e e7f0 ee3c c91c b2bd
00000360: a7b7 a7bd 404f ecbd 8f59 993e 1766 b53e
00000370: d065 c2bd c78f 2a3c 1201 90be 7364 c6be
00000380: 0745 3bbe 83dc 9d3e e220 353e ae96 703e
00000390: 1530 22bf 9d63 f2be 3c4d 58be 2fe1 53bf
000003a0: 2559 c2bd 699d 17bf 9451 f4be 703a 383e
000003b0: 4cce 2dbe 707a 153e fe63 c7be 5022 38bf
000003c0: a593 5ebd cd9d f5be 1e23 c5bd d618 07bf
000003d0: f748 28bf 7a7b 67bd 7cb8 e4be 4ca5 04be
000003e0: 0dd3 1ebf 3bd6 2bbf 2850 9dbe d4d6 02bf
000003f0: 6326 a63e 7740 dd3d 3389 853e cf14 67be
0.47585508 -0.09545445 -0.13797922 0.07170796 -0.04957757 -0.14947917 -0.28325945 0.027780259
0.16359198 -0.13660488 -0.14509815 0.0539159 0.15158512 0.14407262 -0.228885 0.08805388
0.21182749 0.028355809 -0.19181216 -0.29760614 -0.15712355 -0.009698438 -0.0001593498 0.059089124
-0.34328532 -0.1317142 0.046174835 -0.09714788 -0.120171025 -0.21832871 -0.11919977 -0.14257942
-0.11463016 -0.08386729 -0.4778499 -0.04796803 -0.31619814 -0.20828012 -0.1652531 0.3281188
-0.42334494 0.2767381 0.09883118 0.43713123 -0.04897792 0.23587604 -0.10705322 -0.18162856
-0.44281775 0.38419545 0.16376893 -0.08232978 -0.45896018 0.5490021 0.19649021 -0.04905605
-0.21992451 -0.13732305 0.3557008 0.14130831 0.49729416 -0.44918802 -0.36858845 -0.19954918
-0.26555714 -0.005520813 -0.9516915 0.20408975 0.104556456 0.1872741 -0.42858556 0.17852744
0.20325267 -0.21741247 0.1710236 0.24216317 0.17904095 -0.13861915 -0.09532199 -0.7390136
-0.45551518 -0.57191604 0.5958131 0.26238972 0.31630027 -0.933498 -1.4040213 0.4748751
0.47812384 0.59700835 -0.6855062 0.432958 -0.42506734 -0.70247877 -0.6678369 2.1091435
1.0800302 -0.8054604 -0.46587068 -0.8725335 0.07477081 -0.0010552522 0.16793734 -0.23525569
0.25183842 -0.09712243 0.07284702 -0.338828 -0.30863664 -0.13913286 0.015743861 0.18081082
0.18758637 0.3869635 0.09885849 -0.3266844 -0.1232969 0.3810926 0.011536532 -0.048922535
0.3830147 0.19141784 -0.02265223 -0.37771755 0.52935594 -0.2175111 0.2800405 0.20192121
0.15206641 0.08390963 -0.08369943 0.19504477 0.027778137 0.013332791 0.32019907 0.51245844
-0.0475795 -0.20243827 -0.05857666 -0.09552065 1.1035322 -0.36688823 -0.13042343 -0.66206414
0.20664488 -0.054658044 -0.43561962 0.177386 -0.68779355 0.4914957 -0.16315211 0.36953393
0.65830034 0.35032827 -0.10123117 -0.07937395 0.35670945 0.1712485 -0.006075186 -0.38727832
0.07155331 0.0325227 -0.14066845 0.2797881 -0.026522314 -0.015240528 -0.040770356 -0.26347414
-0.08034477 0.21116544 -0.1546451 -0.09240451 -0.30104935 -0.34106186 0.07642845 0.08959827
-1.0781403 -0.93898076 0.4564085 1.9594115 -0.3176172 0.41491744 0.47261715 -0.07496436
0.07953836 0.064520404 0.10202449 0.1492785 -0.0800692 -0.8549777 -0.5311139 -0.16460022
-0.2934341 -0.3534001 -1.0541106 0.5709254 0.11174224 -0.3785278 -0.13500726 -0.27508307
-0.10157826 -0.13490732 -0.3442591 -0.3736297 -0.31425783 -0.1443343 -0.22019663 0.23597763
0.29812863 -0.32079756 0.24826373 0.4083841 0.42540845 0.18651402 0.029167606 -0.086968966
-0.08189326 -0.11538553 0.2995114 0.3542945 -0.094920754 0.010410256 -0.28125817 -0.38748512
-0.1828805 0.308323 0.17688325 0.2349498 -0.6335462 -0.47341624 -0.21123213 -0.8276548
-0.09489659 -0.59224564 -0.4771849 0.17991042 -0.16973227 0.14597487 -0.38943475 -0.71927357
-0.054340024 -0.47971955 -0.09625839 -0.5277227 -0.65736336 -0.05651424 -0.44672 -0.12953681
-0.6204079 -0.67123765 -0.30725217 -0.5110905 0.32451162 0.10803311 0.26081237 -0.22566532

conv2.bias f4 [16]
00000000: b510 063e 34c2 733e 0a74 ad3e 9068 82be
00000010: 2d42 01bd 7eba c63e 4492 adbe 5736 913f
00000020: 5627 ec3a c5fe 3d3f 7f6a 8a3f ffc3 b0bc
00000030: d3c4 6fbd 87f4 99be 8f21 5bbc b150 b3bd
0.1309231 0.23804551 0.33877593 -0.254704 -0.03155725 0.38814157 -0.33900654 1.1344708
0.0018017094 0.7421687 1.081375 -0.021577833 -0.058537316 -0.30069372 -0.0133747 -0.08755625

conv3.weight f4 [120, 16, 5, 5]
00000000: 934b 3fbe 4112 483e 076f f83d c2af 8e3e
00000010: 0d45 de3d 8e67 85be acbf ce3d a857 13be
00000020: 42e6 0c3e eec1 d7bc 271a fc3d a5d2 dc3e
00000030: 00d9 31be d02c cdbd 40fa 44bd 9fd0 b83b
00000040: 40e6 6b3d bb70 9fbe f390 b0bd 6db0 90bd
00000050: fe43 d5bc 532d 84bf 49b7 7fbf 555e 4b3e
00000060: ef90 27be 98e0 893e 41bb 043e 29bf b53d
00000070: 8755 473e 94a5 793d 318d 053e 635d 3e3e
00000080: f460 ad3e 9413 1d3e 880b b43d c846 c1ba
00000090: fddf 083e 821a 7b3e 56bc 8f3e b56a 16be
000000a0: bf67 07bd ec6d e7bd 7be2 553e 3062 733e
000000b0: 1a14 05bd 79ea 57bd d1e0 b53d a93f 9ebc
000000c0: 2d70 a7be 8161 f9bb fcce 9f39 49f5 1bbd
000000d0: e0a3 0abe 0790 153d 7142 263d 5748 21bc
000000e0: 2470 acbd a585 f4bd 4816 bbbd 9a9a 313d
000000f0: 22f3 b7bd b237 52bd 1252 aabb 977d bdbd
00000100: f0cf e9bd dee6 d4bd 4078 4abd 58d4 85bd
00000110: 020d 8dbd 8fd4 e2bd 0de6 75bd d40c cebd
00000120: afde b8bd 5523 9cbd 2127 9bbd 01bd 0e3d
00000130: 24fd 4ebd 5e4b 89be 3450 b8be 224c d13d
00000140: 1048 89bd 876d c8be c9ea 42bd 57e3 75be
00000150: 4cb8 163e fab2 48bd 2c29 d5bd 365d be3a
00000160: bdbc fb3a bf13 54be 3c70 9abd bb56 92be
00000170: b7b3 e43d acf8 433e fd2c 5cbc 20df 7bbd
00000180: e557 a7be e1cb aabc bb1b 96be cadf 36be
00000190: 20f3 2e3c bbed 693d 70cf 3e3d 68d7 b0bc
000001a0: 6885 933c ad6d 9c3c 6186 c1bb ba23 74bc
000001b0: 5da1 4c3c e564 9cbc 6c37 033c e33e 4c3b
000001c0: 0038 973b 6597 37bc 90dd a83c 0a84 9dbb
000001d0: 566e 013c 3c68 603c 9936 c2bb f406 72bc
000001e0: a4fd 483a 510f 20bb 5165 943b fbea ce3b
000001f0: 64bd 2ebc 1e79 3bbc ec12 a73c ceba 0f3e
00000200: ec3a 73be 73f5 71bb a25e f4bc 1263 51be
00000210: 8703 823d cfe5 d33d 4778 06bc a829 6dbc
00000220: 524c 0a3c f007 663e 869e 85be e8ad 39bd
00000230: 8f1d 62bc 3cd6 b53c 41ba a7bd 863d 88be
00000240: b8fb 8ebd d1b4 3bbd b66e 06be bae7 863c
00000250: abd6 683d 47fc 03bd 4f8b 41be b7a0 e93d
00000260: 9cc0 643e e306 cabd b7ef 44be 048e 83be
00000270: 68ce 193e d86f 7f3c c033 693d 7010 533e
00000280: 067d 03bd 1936 47be e62e 28be 1424 34be
00000290: dbd1 503e 2103 01be 2840 fdbc f6c0 9ebb
000002a0: f1b1 a3be 8e2e dfbb 6fb5 443d fb9f 05be
000002b0: 6e03 04bc bda1 03bd e70a 3cbe 8e88 d9bd
000002c0: 3073 ff3d 3a77 953e db48 28be 2294 7fbd
000002d0: 7076 3dbd 3582 5b3e a932 adbc 3c14 37be
000002e0: e88a 523d 7889 27bd ec2e 29be 4bad b23d
000002f0: 470e 7ebc 1955 74bd 1cb6 ffbc d8ce 54be
00000300: eb12 4cbe 6d85 a8bd 84f7 493c 4986 e0bc
00000310: a2e5 5bbe 0d60 a73e 049d 2bbe 356b 99bc
00000320: ccb5 6cbb 751f 13bc 17e2 dbbc b1e0 94bb
00000330: c542 553c 34bc 043c 32d2 903c 0990 f5bb
00000340: fea6 b9bc 2e1a 943b 5743 5a3c a368 2c3c
00000350: 5fef a0bc de4e 01bd 1870 1fbc bca4 44bc
00000360: 56ac 3b3c 9b16 25bc 5dab 583c 5e2d 563c
00000370: 57da 35bc c444 963b cc84 6ebb 0e52 c5bc
00000380: 1251 553c 5760 3a3d 9e3f 023e eac9 5b3e
00000390: 8c2f 5cbc 9886 b1bd 5517 32bb 729e 323d
000003a0: 6d54 4d3d 4120 c63d b837 3d3e a5e6 e83d
000003b0: 9bda e3bd 9595 ef3d 0d42 043e 8312 8ebc
000003c0: cde3 14bd cc54 43be 9b36 203e ea0c 83be
000003d0: d995 273e bb9a c9be 5d26 9abe 5178 453d
000003e0: 854c 4cbe e2c5 88bd cd5d 97bb 914d 3b3e
000003f0: 22fe b3bd 4d76 81bd 97da 233c e5b6 883a
-0.18681173 0.19538213 0.12130552 0.27868468 0.10853014 -0.26055568 0.10095152 -0.14388907
0.13759711 -0.02633759 0.12309676 0.4312946 -0.17367935 -0.10018313 -0.04809022 0.005640104
0.05759263 -0.31140694 -0.08621397 -0.070649005 -0.026033398 -1.0326332 -0.99889046 0.19860204
-0.16363882 0.26929164 0.12962057 0.088743515 0.1946622 0.060948923 0.13042141 0.18590312
0.33863032 0.153395 0.08791262 -0.0014745826 0.13366695 0.2452183 0.28073376 -0.14689143
-0.033057924 -0.11300263 0.20887177 0.23767924 -0.032489873 -0.052713845 0.08880771 -0.019317465
-0.3270277 -0.0076105003 0.0003048106 -0.03807572 -0.13539076 0.03651431 0.040590707 -0.009843907
-0.084198266 -0.11939553 -0.09135109 0.04336033 -0.08981921 -0.051322646 -0.005197772 -0.0925247
-0.11416614 -0.10395597 -0.049431086 -0.06534642 -0.06887247 -0.110756986 -0.060033847 -0.100610405
-0.090268485 -0.076239266 -0.075758226 0.034848217 -0.050534382 -0.26815313 -0.3599869 0.10219599
-0.06703198 -0.39146063 -0.04758719 -0.24012505 0.14718741 -0.04899881 -0.104082435 0.0014523629
0.0019206029 -0.20710658 -0.07540938 -0.28581795 0.111670904 0.1913783 -0.01343846 -0.061492085
-0.32684246 -0.02084917 -0.29318032 -0.17858806 0.010678083 0.057111483 0.046584547 -0.021587089
0.018007949 0.019095266 -0.005905912 -0.014901096 0.012489644 -0.019091079 0.008008819 0.0031165413
0.00461483 -0.011205529 0.020613462 -0.004807 0.007899841 0.013696726 -0.0059269187 -0.014772166
0.000766719 -0.0024423192 0.0045286794 0.006314633 -0.010665271 -0.011442451 0.020394765 0.14036104
-0.23752946 -0.003691998 -0.02983028 -0.20447949 0.06348329 0.10346567 -0.008207387 -0.014475264
0.008441048 0.22463965 -0.26097506 -0.045331866 -0.013800993 0.022196881 -0.08189822 -0.2660944
-0.06981605 -0.045826737 -0.1312817 0.016467918 0.05684535 -0.032223012 -0.18900798 0.11407607
0.223391 -0.09864595 -0.19232069 -0.25694287 0.15020144 0.0155906305 0.05693412 0.20611739
-0.032101654 -0.1945423 -0.1642414 -0.17591888 0.20392554 -0.1259885 -0.030914381 -0.00484478
-0.31971696 -0.0068109697 0.04802459 -0.13049309 -0.008057458 -0.032136668 -0.18363534 -0.10621749
0.12473142 0.29192525 -0.16434042 -0.06239713 -0.04625553 0.21436389 -0.02114232 -0.17878813
0.051402003 -0.040902585 -0.16521806 0.08724459 -0.015506334 -0.059651468 -0.031214766 -0.2078203
-0.19929092 -0.08228574 0.012327079 -0.027407782 -0.21474317 0.32690468 -0.16759115 -0.018727878
-0.0036119102 -0.008979668 -0.026841206 -0.004543387 0.013016407 0.008101512 0.017678354 -0.007493977
-0.022662636 0.0045197224 0.013321719 0.010522994 -0.019645391 -0.031569354 -0.009731315 -0.012002166
0.011454662 -0.01007619 0.01322445 0.01307234 -0.01109942 0.004585834 -0.003639507 -0.024086978
0.013019817 0.045502033 0.1271958 0.21463743 -0.01343907 -0.0866825 -0.0027174552 0.043608136
0.050129343 0.09674121 0.18478286 0.11372117 -0.1112568 0.116984524 0.12915821 -0.017342811
-0.03635006 -0.19075316 0.1564583 -0.2559579 0.16365756 -0.39375862 -0.30107394 0.048210446
-0.19951065 -0.06678368 -0.004619336 0.18291308 -0.08788706 -0.06321392 0.010000846 0.0010430483

conv3.bias f4 [120]
00000000: f31b eebd 3c93 863c 0566 2ebe e2f8 013e
00000010: f759 7ebd 3299 f8bc 4c4a d6be 1126 ebbd
00000020: 65f0 fc3d 8d98 443d 5213 ddbc 4813 4ebe
00000030: 64ff 0e3e aaa3 19bd 4db2 d73c af85 7e3d
00000040: 1647 323e 9a3f f53d 067e 5a3e 314b 003d
00000050: 16d5 93bc c895 0bbe 176a 55bd 900e fdbc
00000060: 687b 403e 90ce 8abd 4703 7dbe 0b94 00bc
00000070: 8d5e ab3e 018f 083c 5169 df3d 6def 78bd
00000080: fce9 bc3d 15cf 453e e526 ebbc fd4d 9f3e
00000090: 2bb8 85be 181f efbe e777 17bd 0fed 6abe
000000a0: 349a 783e b245 1abf c5a4 353d 7f3a 3ebd
000000b0: f1ae 123f 872e c83b 2fe3 b8bd 37fc dabc
000000c0: 93a6 553d fedd 333e 8d80 ac3d 12d1 47bd
000000d0: b438 4abe cb88 f33e 421d 153f de94 893e
000000e0: e9a0 4cbe 4bdc 19bd 8861 ec3c ea40 663c
000000f0: d38b b1bc 8fde 173e 2924 4a3e 0842 993e
00000100: 0091 ce3c 930c d9bd 1596 4b3d d8b3 f0be
00000110: e770 c73e 3c47 193d d0de 0ebf ecc6 87be
00000120: b113 afbd 8167 693e 6b20 0bbb a556 493e
00000130: b160 123e ec1e 12bc 90d5 ebbe 01bd 9b3e
00000140: 89d0 253e 4492 fdbd be90 2e3e 8924 c6bc
00000150: fbfd 27bf 04b2 2fbc 136d f8bd f7b8 d23e
00000160: 770d 8d3e 21af bebe 42ad 85bd 2bbe 0c3f
00000170: ceff bb3e df49 ffbc 64f9 923e 68f8 0d3f
00000180: 9b7d 66be 2810 21bc 576d 2c3d 23c3 f7bc
00000190: 04f7 2cbd 051b acbd 2dc3 e53e b841 c0be
000001a0: 8716 40be da78 31bd 2d16 c73d c4f9 c1be
000001b0: 7409 a8be cb46 14bc 5aa8 d13d 512c ac3e
000001c0: 63ff 83bc 30b5 3b3e 0e8a 99be 457c 88be
000001d0: 9f28 d13c 9424 623e 16cf 233e 6fc0 89bd
-0.11626425 0.016427629 -0.17031105 0.12692598 -0.062097516 -0.030346487 -0.4185356 -0.1148187
0.12350539 0.047997046 -0.026986752 -0.20124543 0.13964611 -0.037509598 0.026330138 0.06213921
0.1740993 0.11975022 0.21337137 0.031321708 -0.018045943 -0.13631356 -0.05210313 -0.030890733
0.18797076 -0.0677768 -0.24708281 -0.007847796 0.33470574 0.008334876 0.109087594 -0.06077521
0.092243165 0.19317277 -0.02870507 0.31114188 -0.26117072 -0.4670341 -0.036979582 -0.22941993
0.24277574 -0.60262597 0.04434659 -0.046442505 0.5729819 0.006109062 -0.09027707 -0.026731594
0.05216081 0.17565152 0.084229566 -0.04878337 -0.19748193 0.47565302 0.5824777 0.2687139
-0.19983257 -0.037563603 0.0288551 0.014053563 -0.021673119 0.14830993 0.19740357 0.2993319
0.025215626 -0.105981015 0.049703676 -0.4701221 0.38953325 0.03742145 -0.55808735 -0.26518953
-0.08548678 0.2279339 -0.002122904 0.19661959 0.14294697 -0.008918505 -0.46061373 0.30417636
0.16192831 -0.123814136 0.17047402 -0.024187343 -0.6562192 -0.010723595 -0.12130179 0.41156742
0.27549335 -0.37242988 -0.06527187 0.54977673 0.367186 -0.031163154 0.28705895 0.5545716
-0.22508852 -0.009830512 0.042096462 -0.030244416 -0.04222776 -0.08403591 0.4487547 -0.3755014
-0.18758593 -0.043328144 0.097210266 -0.3788587 -0.32819712 -0.0090500815 0.10237189 0.3362756
-0.016112989 0.18330836 -0.2998814 -0.2665731 0.025532065 0.22084266 0.15996966 -0.06726157

fc1.weight f4 [84, 120]
00000000: 81aa efbc 41bc 66ba 9060 87be 6bbd cbbd
00000010: c39b eebd cfb4 d2bc 7081 b2bd 54fb 8ebd
00000020: 1b97 82bd 849c 05be c934 123d a2d8 c7bc
00000030: 3a64 84bd d081 0cbd df0c d3bd 2ea6 00bd
00000040: e152 8cbd c5e3 7dbd 6fbc 5bbe 0e5d a93d
00000050: 021b 38bf 0923 e1bd e4b1 5abd f345 8e3b
00000060: c45d 6dbe 0d1e 01bf 835a 363e def9 7e3d
00000070: 4aeb f3bd d5b8 cbbb 7517 b8bc 0f5a 9cbd
00000080: fa59 e3bd abf7 813d 5e7d 59bd 83ff 2abc
00000090: f2f2 92bd d3a3 1fbd e198 333a c3b4 093d
000000a0: c59c 56be b774 4dbe 5082 19bf 1b9d 843c
000000b0: 453a 26bd 7112 08be b8ff 383d ddcf c93a
000000c0: 0573 47bc a8cf 1fbd 558c 0ebd a7e9 ca3d
000000d0: 00e1 253d 191d 3c3d 0695 85bc 6184 d5bd
000000e0: c1ba d3bd 3fd0 bb3d adc8 12bf a35c fbbb
000000f0: c269 f53c 56ba 2f3e d76e dc3c f1e8 49bf
00000100: 285a fe3b ba81 cebc bf62 2abe 4631 29bf
00000110: b8fe c0bd b840 533a 888b 5ebd 3e5b b7be
00000120: 56f4 5f3b 00db 20bd d2bc 9b3d 78ae 40bf
00000130: 091a 77bc 2a6d cb3c 44d2 0ebe 4491 04bd
00000140: 13a3 c9bd 190c 5dbd f91f 2f3c 2021 21bd
00000150: f54c a4bd f5ce 2e3c 43b6 11bd 66c9 c63b
00000160: f111 b63b 78d7 f73c 6b56 0fbe 8124 d8bd
00000170: 305f b1bb a237 e4bd b8a6 06bd b563 6dbe
00000180: 9be0 2d3e 9535 a0bb 7057 873c 25d7 5cbf
00000190: 5661 a1be cdd4 a63c b5a9 07bd 83e3 dabe
000001a0: c726 a8bf d522 fabd 6e6c 003d e6a0 05be
000001b0: 6c29 0b3d 9989 22be 506d b3bd cf7c 5abd
000001c0: 077b d73b 4f89 0a3e 7b6d b2bd 7471 dbbd
000001d0: 96b2 9bbc 532f 7fbd cae8 1f3e 9ac0 98bd
000001e0: 5039 80bd f483 1e3a 405a ddbd cf69 b5bd
000001f0: fe06 78bd 8a99 bdbc 5fd8 2fbe 7651 0dbe
00000200: 3564 30be 13de 923c 4584 dabc cf02 32be
00000210: 2d3f 6d3c bb69 a3bd 704a f5bd 4fc1 2a3d
00000220: c70e 26be f65c 023d 3972 babd 9b98 053c
00000230: 2b28 f4bd 2b1e 13be 976d a9bd d0cf 2bbc
00000240: 30dd f0bd dd4f 3ebc a669 2fbd 80d3 8cbc
00000250: 9806 b7bd cd71 0b3d 127f cabc ebc6 d63d
00000260: 4631 873e 9ec2 943c 1366 1fbd 8ae1 16be
00000270: 1233 70bd f251 793e 1e3e 9c3c 0464 26bd
00000280: 26b6 683c 1e78 1abd 5dbd a8bd 8720 c83c
00000290: 26b0 52bd a540 c83b f18f 13be 359b cc3c
000002a0: eb4a 3abd 0766 11be 3cf2 a63c 622b 1a3e
000002b0: 9b99 393e f543 adbc db48 8cbd 67b1 a5bc
000002c0: 9edb 15bd 46b9 a2bc 8175 263e e238 e8bd
000002d0: 1e8c a63c 7731 2dbd 48c5 d03c c043 25bd
000002e0: 6963 30bd 881f 17be 2bf7 dfbd 250b 80bd
000002f0: bd1d f83d 070c 01b8 5754 d23c 7d1c 59be
00000300: 700a 433c 3c30 b0bd cf74 e2bc 7d59 bdbd
00000310: fba5 5abc a381 f73c 0b19 bfbd 602c b73d
00000320: 1e83 33be bdb9 b2bd 72af 46bd 0252 53bd
00000330: 730f bdbd cb5a 5bbc d181 75bc b906 bdbd
00000340: 7593 dc3c 6653 44bd 0137 dbbd 97cf 5fbc
00000350: ffef 2ebd 7397 90bd f385 243d 819b e43c
00000360: e602 d73d 7d9b 5a3d 19b1 12be 023c 63bd
00000370: 79a5 b7bd 25a9 febd 448d 303c 8e10 41bd
00000380: 8a9d d63e f265 e63a 97df 9dbc fb7c 08be
00000390: df8e 47be 4abb aabc 394b 81bd 3f8b 84bd
000003a0: b243 68ba e259 9dbd de2c 1dbd 558d 49bd
000003b0: d6e9 b1bc f3a3 b0bb 2750 16be 1de0 50bd
000003c0: 70f2 023d 4e48 2a3c 48a5 13bd 4aac 393a
000003d0: 4426 72bd 0c18 983c 1922 70bd 4e3f 8bbe
000003e0: a01c 84bd c84f 033d 126d 8c3c 9a34 dabb
000003f0: df62 b7bc 5bfa ccbc c274 f3bc 2d13 443c
-0.029256107 -0.0008801856 -0.2644086 -0.09948238 -0.11650803 -0.025720982 -0.087160945 -0.06981531
-0.06376477 -0.13047987 0.03569487 -0.02439529 -0.06464429 -0.034303486 -0.10305189 -0.03140848
-0.068517454 -0.061984796 -0.214586 0.08269702 -0.7191621 -0.109930106 -0.053392306 0.0043418347
-0.231803 -0.5043648 0.17807965 0.06225001 -0.11910112 -0.006217102 -0.022472123 -0.07634365
-0.11101146 0.06346067 -0.053098075 -0.010436895 -0.071752444 -0.038974594 0.0006851089 0.033619653
-0.2095824 -0.20064054 -0.59964466 0.016188195 -0.040582914 -0.13288285 0.045165747 0.0015397031
-0.012173419 -0.039016396 -0.0348018 0.09907847 0.04049778 0.045926187 -0.016306411 -0.1042564
-0.10338355 0.09170579 -0.57337457 -0.0076709553 0.029957656 0.17160925 0.026908321 -0.78871065
0.0077622123 -0.025208343 -0.16639231 -0.6609081 -0.09423584 0.0008058655 -0.054332286 -0.358118
0.0034172735 -0.039271355 0.07604374 -0.7526622 -0.015081891 0.024832327 -0.13947397 -0.0323651
-0.09845557 -0.053966615 0.010688775 -0.03933823 -0.08022491 0.01066946 -0.03557421 0.006066489
0.005556338 0.03025411 -0.1399781 -0.105538376 -0.0054129586 -0.111434236 -0.03287384 -0.23182566
0.16980211 -0.0048892 0.016521186 -0.86265785 -0.31519574 0.020365143 -0.03312083 -0.42751703
-1.3136834 -0.12213675 0.031353407 -0.13049659 0.03397505 -0.15872802 -0.08761084 -0.053341683
0.0065759453 0.13528942 -0.08712288 -0.10714999 -0.019006055 -0.06230099 0.15616146 -0.07458611
-0.062609315 0.0006046884 -0.108082294 -0.08858072 -0.060553543 -0.023144502 -0.17172383 -0.13800606
-0.17225726 0.017928159 -0.0266744 -0.17383884 0.014480394 -0.07979151 -0.119770885 0.04168826
-0.16216575 0.031826936 -0.091038175 0.00815406 -0.11921724 -0.14366977 -0.08272856 -0.010486558
-0.11760938 -0.011615721 -0.042825364 -0.017190695 -0.089368045 0.034044076 -0.024718795 0.10487159
0.2640478 0.018159207 -0.038915705 -0.14734474 -0.058642454 0.24347666 0.019072589 -0.040622726
0.014203584 -0.03771221 -0.08239243 0.024429573 -0.05143752 0.006111222 -0.14410378 0.024976352
-0.045481604 -0.14199077 0.020379178 0.15055612 0.18125002 -0.021150569 -0.068498336 -0.020226194
-0.036586396 -0.019863736 0.16255762 -0.113389745 0.020330485 -0.0422835 0.025484696 -0.040347815
-0.043063555 -0.14758122 -0.109358154 -0.06252126 0.12115047 -3.0767198e-05 0.025674982 -0.21202274
0.011904344 -0.0860295 -0.02764359 -0.09245584 -0.013345237 0.030213183 -0.093309484 0.08944011
-0.17530486 -0.08726833 -0.04850716 -0.05159188 -0.09231462 -0.013388346 -0.014984564 -0.09229798
0.026925782 -0.047931097 -0.107038505 -0.013660333 -0.042709347 -0.07060137 0.040166806 0.027906181
0.104986 0.05337094 -0.1432537 -0.05547715 -0.08967108 -0.124346055 0.010775868 -0.04713493
0.41917068 0.001757799 -0.019271655 -0.13328926 -0.19488095 -0.02084126 -0.06313176 -0.064718716
-0.0008860185 -0.076831594 -0.038372867 -0.04920705 -0.021717947 -0.005390638 -0.14679013 -0.05099498
0.031969488 0.010393215 -0.036046296 0.0007082863 -0.059118524 0.018566154 -0.058626268 -0.27196735
-0.06450772 0.032058507 0.017141853 -0.0066591026 -0.022386013 -0.025021723 -0.02971876 0.0119674625

fc1.bias f4 [84]
00000000: 0857 ce3c 17b9 c83b b4ff 2d3b 2904 35bd
00000010: c288 b33e a97d 84bd fa67 553e 00a4 cb3d
00000020: dcf1 813f 8948 8bbd d5ce 0fbd 54a9 3b3d
00000030: 0493 a3bd 16ff 38bd 1861 0fbc afca d03e
00000040: 06d0 693f c4cd 463e 6fc8 df3e f78f 56bd
00000050: 7502 153f 559d 4abc d805 7e3e c867 aebd
00000060: e0cb 2e3f 5d37 0c3f 8a59 1a3d 8b15 373f
00000070: 1789 233e 7d89 fb3e f9a3 ae3d 3a39 41bd
00000080: 5d20 25be 7632 963e 7259 3ebd a581 643f
00000090: 5c83 40be d5f7 463e 6393 5c3f a3dc a5bc
000000a0: ad30 df3e 888a 063f 8664 9e3d 5576 493e
000000b0: 9fce d03d 8d5a c03d cabc b23e 7cf7 e33d
000000c0: b67a 0abd 6c06 7e3c e27f aa3e ee6b 8f3e
000000d0: 9808 273b 7966 1a3f a20c a63e 5774 093f
000000e0: 1db4 9e3d 9162 8c3e 0864 41bd 4700 cd3d
000000f0: 8885 10be 626a 92bc 2fe5 073f 0748 a33f
00000100: 1ce4 143f db4f 9c3d 09a3 983e 534f 933d
00000110: a657 313f 88c8 88bd a9e4 2c3f 5038 6b3d
00000120: 4250 65bd 0e06 33bd e402 1a3e 9052 1f3e
00000130: 1d6b 35bd dad3 333f 4026 c73e a23b dcbd
00000140: 4e95 3a3f e253 b7bc 6281 31bd 030f a6bd
0.025187984 0.00612558 0.0026550116 -0.04419342 0.35065275 -0.0646928 0.20840445 0.0994339
1.0151935 -0.06800944 -0.03510936 0.04581578 -0.079870254 -0.045165144 -0.008751176 0.40779635
0.91333044 0.19414431 0.43707606 -0.05238339 0.58206874 -0.012366612 0.24806917 -0.085158885
0.6827984 0.5477198 0.037683047 0.71517247 0.15970264 0.49128333 0.08527369 -0.047173716
-0.16125627 0.29335374 -0.04647202 0.8926032 -0.1880011 0.19430478 0.86162394 -0.02024681
0.43591824 0.5255513 0.07734017 0.19674046 0.1019566 0.09392271 0.3490966 0.11131188
-0.033808433 0.015504461 0.33300692 0.2801203 0.00254873 0.6031261 0.32431513 0.53693146
0.07749198 0.2741895 -0.047214538 0.100098185 -0.14113438 -0.017872993 0.5308408 1.2756356
0.5816057 0.07632419 0.29811886 0.07192864 0.69274366 -0.06678873 0.6753641 0.05742675
-0.055984743 -0.043706946 0.15040165 0.15558839 -0.044291604 0.70245135 0.3889637 -0.107535616
0.7288407 -0.022378866 -0.04333628 -0.08108332

fc2.weight f4 [10, 84]
00000000: cc92 d43d 2749 babd 4442 cfbc 7b36 2f3d
00000010: da71 e1be 9db3 10bd 3f65 bc3e 86d8 b03e
00000020: 47eb 77be f9b6 453e 0925 22bd 5105 64bc
00000030: fe76 e83e 4eaa 26bd d61e cc3c ba14 e53e
00000040: c032 743e e29b e4bd fb8f 0c3f a730 5bbb
00000050: f4ca 933e fde1 e1bd 6166 98be 351e b5bc
00000060: aeea 363e d5b0 ca3c d72b b5bd 08a8 8ebe
00000070: cb0c f03d 24bb 95be 1194 c23e 9b40 a43d
00000080: e096 da3e d4b1 eebe a352 edb9 a970 02bd
00000090: 96c6 c13e e00a 033c 9629 ff3e 2974 98bd
000000a0: 76bd fd3d 8013 663e b679 a1bd 84f4 80bd
000000b0: 58b7 fcbc 0913 4a3d 2bd8 5e3f 564e 43bd
000000c0: 520d 8abc e744 debc 90ec c0ba bc87 a43d
000000d0: 9f88 d23c d830 b1be 7e8f febe b54c 2ebe
000000e0: 6ac6 063e 4105 61be bdd2 72bd d820 a93c
000000f0: f6a6 8d3d 528a 32bd 5fdc 9b3f 4b13 94be
00000100: 7210 2e3e 7c47 9e3c 8c15 6cbd 56bb 363e
00000110: 9a5a 06bf 6a69 eebc 4525 28bf 308c e13d
00000120: 327a cbbb da10 9ebc db51 a9bc f820 013f
00000130: 9bae 673d 7817 cebe 3a68 bebd 6a3c a53e
00000140: 8f09 1ebe 31df babc 0cc3 f2bd 3481 a43e
00000150: 750d cebd f5db f8bd b808 f93c 4a9e 153c
00000160: f480 cabe 7d88 59bc 606a 12be 27b8 6abd
00000170: e841 42be 9b39 003e c52a 103e 0435 1abd
00000180: 9e5c 1fbf a988 9fbc a57d 88bd 0c55 7abe
00000190: 6b51 b4be 5e2c c63c ea55 97be 740a 1b3d
000001a0: e1ef 45be 28e9 84bd bbd3 14be 5e90 42bd
000001b0: 1fa9 203f e2d1 653f b46d c43d 2a9d 89be
000001c0: 6378 21be 0139 22be ca10 6f3c 0b67 5abd
000001d0: 1036 8d3c cf26 7cbe c1fd 3ebc 348b b43e
000001e0: 9bce 9e3e ff36 1b3f 9bd4 03bf 89c3 aebd
000001f0: 4e6a 1bbe 01cb 8bbe f123 9ebd 913d 0ebe
00000200: 7a06 8cbd 2aa6 453d e1be a9be 9887 ddbd
00000210: 76fb 9abc 3e4e 8d3d 94af f2bd 83ba c9be
00000220: e6f9 a8bd 3cb4 8cbe 8c69 e4be d52c b2bd
00000230: 8a13 f23c e900 0e3e eecc a3bd 1d5e 0dbd
00000240: 488a 9f3d d29b 0ebd 1662 82be 7456 edbe
00000250: 98fc 9bbe ac68 143e 3e97 113f a376 27be
00000260: 0466 50be 3785 1f3e ed2c 98be 2dd8 6dbd
00000270: a32b 45bd 9399 2f3c bee3 6e3f d0bd a13c
00000280: 8e80 99ba 860a 8abe 76a8 d13d e530 29be
00000290: 88b1 5fbe 92b3 efbb cf89 1fbc 2f38 733d
000002a0: 875d 933c eb0d 1f3e 7b72 5cbd bcd3 59bd
000002b0: 3675 0d3d 0f85 84bb 73dc b83e 424e 32be
000002c0: ac62 403f ec33 24bd 7416 eebd 9806 3d3e
000002d0: 7fd3 28bd de12 fbbc c312 3e3c f109 013d
000002e0: 3d64 fb3c 3bdb aa3e 428b 293f 014e 20bb
000002f0: a0d4 20be f362 0bbe 6515 0d3f b971 81bc
00000300: 185c cb3e 5790 93be f629 6bbd 388c 90be
00000310: c5b4 babd 27e7 7abe 114c ccbd 028f 8e3d
00000320: 4640 ad3a af75 90be 94f9 8abc 856a 6d3d
00000330: a66e 5a3d 62f1 aabe d46d f03e ff62 bbbd
00000340: 801b b43e 3c10 8ebd a3ac debd aea2 333e
00000350: fd67 15be 9517 a53e b4fc a83e 42a7 27bc
00000360: cb84 863d ed99 0a3e 729a 0f3f f409 243e
00000370: 9d4a c93d 4d06 893d c5b0 e2bd 54cc d6be
00000380: 61c1 2abe 31c1 713e 11d3 eebc 0893 b73b
00000390: 9211 8c3e 86f1 81bd 2497 71be 144c 9c3f
000003a0: ef35 5fbd 5814 93be c2a1 62be b76d c63d
000003b0: ff66 4fbe d30d 24be 8366 cabe fae8 593e
000003c0: 8596 debc 7427 2ebd 0b09 14be bd08 a9be
000003d0: 3897 33bd c055 283f 7bce 003f d9f1 53bc
000003e0: 703e a9be 5f9c 5e3d d703 883e 8e1b 823d
000003f0: 42ec 86bd 2358 5bbe 1e3f 14bc 5981 c4bc
0.10379562 -0.09095984 -0.025300153 0.042776566 -0.44032174 -0.035327543 0.36795995 0.34540194
-0.24210845 0.1930808 -0.0395861 -0.013917283 0.45403284 -0.04068976 0.024917047 0.44742376
0.23847485 -0.11162545 0.54907197 -0.0033445747 0.28865778 -0.11029432 -0.2976561 -0.02210913
0.1786296 0.024742523 -0.088462524 -0.27862573 0.1172119 -0.2924434 0.3800359 0.08020135
0.42693233 -0.46620047 -0.00045265732 -0.031845722 0.37846822 0.007998198 0.49836415 -0.07444031
0.123896524 0.22468376 -0.07884543 -0.06296638 -0.030849144 0.04933456 0.87048596 -0.04768213
-0.016852055 -0.027132465 -0.0014718939 0.08033702 0.025699912 -0.34607577 -0.4971885 -0.17021449
0.13161626 -0.2197466 -0.059283007 0.020645544 0.06916611 -0.043588944 1.2176627 -0.2892097
0.16998461 0.019321196 -0.057637736 0.178449 -0.52481997 -0.029103 -0.6568187 0.11013067
-0.006209635 -0.019295145 -0.020668915 0.5044093 0.056563 -0.4025228 -0.092972234 0.32272655
-0.15433334 -0.022811504 -0.118536085 0.32129824 -0.100611605 -0.121513285 0.030399665 0.009131977
-0.39551508 -0.01327717 -0.14298391 -0.057304528 -0.18970454 0.12521975 0.14078815 -0.037648216
-0.622507 -0.019474344 -0.0666459 -0.24446505 -0.35218367 0.024191078 -0.29557735 0.037851766
-0.19329788 -0.064897835 -0.14533894 -0.04750096 0.6275806 0.8977338 0.09591237 -0.2687772
-0.1576858 -0.15842058 0.014591405 -0.053320926 0.017237693 -0.2462418 -0.011657179 0.35262454
0.31017002 0.6063079 -0.51496285 -0.08533389 -0.15177271 -0.27303317 -0.07721699 -0.13890673
-0.06837173 0.04825417 -0.33153442 -0.10816878 -0.018918734 0.06899689 -0.11849895 -0.3940011
-0.08250789 -0.27481258 -0.44611776 -0.08699957 0.029550333 0.13867535 -0.079980716 -0.03451358
0.07790047 -0.03481657 -0.2546546 -0.4635502 -0.3046615 0.14493054 0.568714 -0.1635385
-0.20351416 0.15578161 -0.29721776 -0.05806749 -0.04813732 0.010717767 0.93316257 0.01974383
-0.0011711286 -0.26961154 0.102372095 -0.16522558 -0.21845067 -0.0073151076 -0.009737446 0.059379753
0.017988933 0.15532653 -0.053820115 -0.05318044 0.03453561 -0.004044182 0.3610569 -0.17412665
0.7515056 -0.04008858 -0.11625376 0.18459547 -0.041217323 -0.030648645 0.011601153 0.03150362
0.030687446 0.33370385 0.66228116 -0.0024460556 -0.1570611 -0.13611965 0.5511077 -0.015801298
0.397187 -0.2882106 -0.057413064 -0.28231978 -0.0911651 -0.2450224 -0.09975446 0.0696087
0.0013218008 -0.28214785 -0.016964711 0.057962913 0.05332818 -0.33387285 0.46958792 -0.091497414
0.3517723 -0.0693669 -0.108727716 0.17542526 -0.1459045 0.32244554 0.33005297 -0.010232748
0.06568297 0.1353528 0.5609504 0.16019422 0.098286845 0.06690655 -0.11068872 -0.41952765
-0.1667533 0.23608853 -0.029153379 0.0056022443 0.27357155 -0.06344895 -0.23592812 1.2210717
-0.054494794 -0.2872646 -0.22132018 0.09688895 -0.20254134 -0.16020899 -0.39531335 0.2128028
-0.027171383 -0.042518094 -0.14456575 -0.3301448 -0.043845385 0.65755844 0.50315064 -0.012936079
-0.3305545 0.054348346 0.2656543 0.06352912 -0.06588031 -0.2142034 -0.009048251 -0.023987459

fc2.bias f4 [10]
00000000: 4fdd 4a3f 3a9b 61bf 0668 2b3f cabf 043f
00000010: 9b21 c43e 194d cebe 616a 323f 59b2 f0bd
00000020: 20ab 01bf 0961 8cbf
0.7924394 -0.8812748 0.669556 0.51855147 0.3830689 -0.40293196 0.6969357 -0.11752767
-0.5065174 -1.0967113
