ex1_LeNet5/lenet5_bnFalse_dpTrue_wdFalse_weights.pth (torch, 250607 bytes, 10 tensors)

conv1.weight f4 [6, 1, 5, 5]
00000000: f76e 9a3e db62 4a3f d0cd 813f 0285 053f
00000010: 4368 c0bf f42c 813e 2d7a a93e 7f44 493f
00000020: cc42 b03e e432 a6be 427c afbe 60ee b03d
00000030: a518 093f 230d 4cbe d7bb ccbc defe 243e
00000040: ac2e 8e3f ba6a 603f 0f4d 15be 7f73 debe
00000050: 7e23 80bf a751 a43e 1ad0 72be 9c6e a3bf
00000060: 3d29 2abd 527a 1d3f 9389 dfbf 5125 8f3f
00000070: 1657 2dbd 777a 093f 2c76 2bbc e8ef 0e3f
00000080: 312f 4b3f 392c 0fc0 320c 943f 5afc c2bf
00000090: e8fa 3240 87ea c83f 9197 87c0 897b 5d3f
000000a0: 36a8 203f e087 343f bc37 2b3f 388a 8dbf
000000b0: cd78 91be 4882 813f d6f7 d8bf 34cf 0abf
000000c0: fd91 f43f 526c 05bf d6dd 4fbe 75ba bc3d
000000d0: b7f5 503d 4419 07bd eb79 7a3d b972 81bc
000000e0: 69cf 9c3d 1746 e5bd f98c 8e3d 9d00 30bd
000000f0: eab8 8bbd 38ff 82bd 065d 873c 63d5 13bd
00000100: ffaa 313c ea0b 913d 7598 76bd 37d4 053d
00000110: cc8b 3c3d 914c bd3c 868f a0bc c90f 1bbd
00000120: 4b67 9dbd ba39 b23d 9249 b1bd 085a 3e3f
00000130: 068f 2dbf 100a 863f eaf6 043f 2da7 9fbe
00000140: c60a 323e ff97 2dbf 8f34 b23f 4fe5 efbe
00000150: 0c06 38bf 7c55 a1bf e32c 53c0 026f da3d
00000160: 7c00 bcbe 143b 953f dd9d 03c0 4b65 a2c0
00000170: 5ece 6ac0 8e89 43bf 03b4 a53f c453 593f
00000180: 382f 08c0 fe4f 86bf 1608 733f f162 b0be
00000190: 9ab5 c13d 5c6c 8fbe 87a6 4a3f cad8 673e
000001a0: 9950 66bf f43c 9d3e 860b 01bf 8603 183f
000001b0: 6fc8 b03f bb39 193f 0f4a 95be bc59 9cbe
000001c0: 8207 b83f ca70 a23f 9e87 a13d 6c18 5e3f
000001d0: 8aca 7d3e 9b4e 7c3f 7a4d 07c0 37b6 c3bf
000001e0: 24f3 6c3f b43a 11be dcdd 82bf 91d3 43c0
000001f0: 6ced 383f 8b58 72bf 3632 353f 59fa 03c0
00000200: 07e1 9fbf 1b63 34bf e081 813f e29f 883f
00000210: f429 9dbf c593 33c0 02b2 08c0 e722 303f
00000220: 7cc4 b9be 44bd 0340 f08e 0d40 750e d33f
00000230: 5dd8 8ebc a102 45be db73 fabc 1f24 4cbf
00000240: 08be 5e3e d15b 29bf 011e 863e 40aa 763f
00000250: cdcf b2bd fe62 6bbf
0.30162784 0.7905709 1.0140934 0.5215608 -1.5031818 0.2522961 0.33101025 0.7862014
0.34425962 -0.324607 -0.3427449 0.086392164 0.5355323 -0.19926886 -0.024991913 0.16112849
1.1107993 0.8766285 -0.14580177 -0.43447492 -1.0010831 0.32093546 -0.23712197 -1.276813
-0.041543234 0.6151477 -1.7463859 1.1183263 -0.04231938 0.5370249 -0.010465186 0.5583482
0.79368883 -2.2370741 1.1566222 -1.5233262 2.796564 1.5696572 -4.2372518 0.86516625
0.6275667 0.7051983 0.6688192 -1.1057806 -0.28412476 1.0117884 -1.6950634 -0.54222417
1.9107052 -0.5211841 -0.20299467 0.09215251 0.051015582 -0.03298308 0.061151426 -0.015801774
0.07656748 -0.11195009 0.06960482 -0.042969335 -0.06822379 -0.06396335 0.01652385 -0.036092173
0.010843991 0.070823506 -0.060203988 0.032673087 0.04603176 0.023107799 -0.019599687 -0.03785685
-0.07685717 0.08702417 -0.086566105 0.74356127 -0.6779636 1.0471821 0.5193926 -0.31182232
0.17386922 -0.6781005 1.392229 -0.46854636 -0.71884227 -1.2604213 -3.2996147 0.10665704
-0.3671912 1.1658654 -2.0565102 -5.074865 -3.6688457 -0.76381767 1.294556 0.8489344
-2.127882 -1.0493162 0.94934213 -0.34450486 0.09458466 -0.2801236 0.7916035 0.22641292
-0.8996673 0.30710566 -0.5040821 0.59380376 1.3811167 0.59853715 -0.29158065 -0.30537212
1.4377291 1.269067 0.07887195 0.86756015 0.24784294 0.9855744 -2.1141038 -1.5289983
0.92558503 -0.1418255 -1.0223956 -3.059788 0.7223728 -0.94666356 0.7077974 -2.062155
-1.2490548 -0.7046372 1.011776 1.0673792 -1.2278428 -2.8058941 -2.1358647 0.68803257
-0.36282718 2.0584269 2.2118492 1.6488787 -0.017437154 -0.19239284 -0.030572822 -0.79742616
0.21752179 -0.66155726 0.26194766 0.9635353 -0.08731041 -0.91947925

conv1.bias f4 [6]
00000000: 4e36 3bc0 b69e 6cbf 6719 18bf 0f85 49c1
00000010: ded1 17c0 5baa 92c0
-2.9251895 -0.92429674 -0.5941376 -12.594985 -2.3721843 -4.5832953

conv2.weight f4 [16, 6, 5, 5]
00000000: e270 46bd e361 03bd 5dfc 8db9 30a9 833c
00000010: 0100 11b9 acc4 09bd 332d d5bd f6a5 2abd
00000020: 2de0 3c3d 8f61 8dbd 0b08 16bd 08e2 c33c
00000030: e7d1 963c 5129 9bbb 6436 54bc a631 95bc
00000040: 2ec3 edbd daf6 b3bd 1701 8abd a9dd 98ba
00000050: 37dd edbc b1ab 013d 33a6 89ba bc7a 253d
00000060: d14a dfbd 1303 e6bc 2ed1 d9bd 1132 2cbe
00000070: 89f2 c0bc d9d7 163a 4871 3c3c 79b2 13be
00000080: 40da 5cbd 8668 003d d656 09bc 0296 15bd
00000090: 5973 ddbd 011c e2bd 3914 cbbb 24d5 9dbd
000000a0: ac8e fd3b a971 31be 34cc 13be e61c 29bd
000000b0: 2dc3 7bbd bcb2 343d 7410 94bd 8d73 1c3c
000000c0: e8af d43d 0740 02be 8727 253c 1035 80bd
000000d0: 4102 20be 9a20 9e3b 2095 0cbd 692b 49bd
000000e0: fa1e 08bd d89e 3fbd 49bc c8bd bbfa 72bc
000000f0: eef2 393d 07bd e43c fe11 833c cd5f 60bd
00000100: 9a64 d0bd a68b a7bb c6a1 7dbd a9a9 a03c
00000110: 043c 06be aa09 afbd e000 b9bc 9242 78bd
00000120: aeee 04be fcce 9cbd 23db 83be de86 3fbe
00000130: f2b6 5fbd eb8a 21be 21aa 15bf ef70 a9be
00000140: 15b2 06be 31b4 99bc 9b42 6bbe 5fbd 06bf
00000150: 1f2f b5be b7cb 54be f0dd 00bd bd11 77be
00000160: be15 18bf 1634 66be 0b76 3bbe 37cd 29be
00000170: 3c7b cebe ec0b ebbe d21f 46be 5014 74be
00000180: 69a7 50be 7475 63be cb0d d0be 5f76 8ebe
00000190: 383f 373d 69d5 89bd 3cee dbbd 4b7a 333d
000001a0: 8ab1 19bd cc86 2ebd d97c eebd 8cf4 b03c
000001b0: ab91 843d f934 d1bd 3b3a e5bb 8785 9abd
000001c0: 8f3d 213d 1c06 c7bc f93d bbbd e4ae 92bc
000001d0: 2148 86bb 8706 b5bd d7bc 13bd 8a6b acbd
000001e0: d027 8c39 292d 363d 4608 383d 5750 bcbd
000001f0: eceb 14be 344b 8ebd e5bf 7cbd ee04 76bd
00000200: fdbd aa3c 5f03 08bd e2c7 41bd 3b9d d13c
00000210: c1e4 4abd 5a50 6a3d ce25 0ebe 12ee 95bd
00000220: 2377 d2bd 5d0a 2cbd 9af2 a9bc 44f5 63bd
00000230: 4e0e b3bd 0b24 92bd 7a2f f5bc 94ec 593d
00000240: a844 21be 3a87 71bd c463 97bd 6672 9ebd
00000250: e5dd eebb 2f84 afbd 4589 dcbe b276 e3bc
00000260: 4712 2bbe d3d8 41be a2a5 a2be 5f0b eebe
00000270: 8cfb 6f3c 9012 0abe eae0 50be defd 2ebe
00000280: 3b67 8abe 9bca 29bd 1934 c1bd fb98 edbd
00000290: 2aef 43be acb3 5e3e 90d7 b1be 575f ec3c
000002a0: d88e f1bd da59 9abe 801c f6bd 6af5 d2bd
000002b0: 5d70 59bd b232 68bd 69ce d4bd 3488 c8be
000002c0: dc89 d23e a558 23bf 5cb6 1cbf aa38 d5be
000002d0: 8990 14bf 1d82 bb3e f741 84be 1765 01bf
000002e0: 0253 83be 9951 45bf 5720 333e 3302 1cbf
000002f0: 13cd 09bf 270b bbbe ba16 8c3d f45a 4cbe
00000300: 04bc ebbe 1613 2cbe ac31 3dbf 1ce6 9f3f
00000310: 8df4 74be 44e2 0abf fc3e c1be fb23 2bbf
00000320: 7c07 91bd f48f c53c 1065 723d 7602 23bd
00000330: ce0a cf3d 2bc1 f7bc 176e 5c3d cd91 b5bd
00000340: 68d9 8d3d 0be2 3dbd 05d4 c1bd a39e f7bb
00000350: 6d82 943c c240 47bc 746e 94bc b387 a03c
00000360: 097a cabd 3e65 a7bd 599d eebc 2878 b93d
00000370: 8de5 afbd 8374 5f3c d4b9 bf3b 1a24 793d
00000380: 92d2 523d a173 833e 0270 85bf 4bf7 443e
00000390: ce73 013f 3891 4fbf a037 9cbe b9ff 69bf
000003a0: 6b40 07be aa8a 863d 1ea5 5cbf a1bd 2fbf
000003b0: 8ae7 6cbf c5e1 ec3e f255 e53e 3564 08bf
000003c0: bbf0 2abf 0a18 1bbf 93f7 a63f 97ef 3d3f
000003d0: 9256 4e3d 351f e6bb 59a2 d9be 5fd4 b0bd
000003e0: 0b55 a63d fc60 e4be 3a42 05be b84d a33d
000003f0: 215a 1fbd 95ae a1be 05ca 4ebe e5e6 acbe
-0.048447497 -0.032075774 -0.0002708164 0.016071886 -0.00013828279 -0.033634827 -0.10409012 -0.04166218
0.04611223 -0.069033735 -0.036628764 0.023911491 0.018410636 -0.00473515 -0.012952421 -0.01821215
-0.11609493 -0.087873176 -0.06738489 -0.001166274 -0.029036148 0.03165788 -0.0010501802 0.04040025
-0.10902942 -0.028077638 -0.10635601 -0.16815974 -0.02355315 0.00057542097 0.011501618 -0.1442355
-0.053919077 0.03134968 -0.00838252 -0.03652001 -0.108130164 -0.110404976 -0.006197479 -0.07706669
0.007737955 -0.17328514 -0.14433366 -0.041287325 -0.06146543 0.044115767 -0.07229701 0.009549034
0.10385114 -0.12719737 0.010080225 -0.06260121 -0.1562586 0.0048256638 -0.034321904 -0.049113665
-0.033232667 -0.046782345 -0.098015375 -0.014830287 0.04539769 0.027922167 0.01599979 -0.054778863
-0.10175438 -0.005113083 -0.061921857 0.01961215 -0.13108832 -0.08546765 -0.022583425 -0.06061036
-0.12981674 -0.07656667 -0.25753126 -0.18703791 -0.05461783 -0.15775649 -0.5846272 -0.33093974
-0.1315387 -0.01876268 -0.22974627 -0.5263271 -0.35387513 -0.20780836 -0.031461656 -0.2412786
-0.59408176 -0.22480807 -0.18306749 -0.1658219 -0.40328395 -0.45907533 -0.19348076 -0.23835874
-0.20376362 -0.22212774 -0.40635523 -0.27824685 0.044738024 -0.06730158 -0.10738799 0.0438178
-0.03752283 -0.04260902 -0.116449066 0.021600984 0.064730965 -0.10215182 -0.006995467 -0.075449996
0.039365347 -0.024294905 -0.0914268 -0.01790566 -0.004097954 -0.088391356 -0.036068764 -0.08418949
0.00026732543 0.04447666 0.044929765 -0.09195011 -0.14543122 -0.069479376 -0.061706442 -0.060063295
0.020842547 -0.03320634 -0.047309764 0.025587669 -0.049534563 0.057205535 -0.13881609 -0.07320799
-0.1027663 -0.04200207 -0.020745564 -0.055653825 -0.08742963 -0.07135781 -0.029929865 0.053204134
-0.15748847 -0.058966853 -0.07392076 -0.077366635 -0.0072896355 -0.08570134 -0.43073478 -0.02776656
-0.16706191 -0.18930368 -0.31766993 -0.4649305 0.014647376 -0.13483644 -0.20398298 -0.1708903
-0.27031884 -0.041452985 -0.09433765 -0.11601444 -0.19134203 0.21748227 -0.34734774 0.028854055
-0.117948234 -0.30146676 -0.12017155 -0.10300715 -0.053085674 -0.05668897 -0.10390932 -0.39166415
0.41120803 -0.63807136 -0.6121576 -0.41644794 -0.58033043 0.36622706 -0.25831577 -0.50544876
-0.25649267 -0.77077633 0.17492805 -0.60940856 -0.53828543 -0.36531946 0.06840272 -0.19956571
-0.46041882 -0.16804156 -0.7390392 1.2492099 -0.23921414 -0.54251504 -0.37743366 -0.66851777
-0.07081506 0.024116494 0.059178412 -0.03979727 0.10109483 -0.030243477 0.053815927 -0.088657
0.069262326 -0.04635815 -0.09464268 -0.007556753 0.018128598 -0.012161436 -0.018119074 0.019595956
-0.098865576 -0.08173607 -0.029127764 0.09056121 -0.08588705 0.013638618 0.00585101 0.060825445
0.051470347 0.25674155 -1.0424807 0.1923496 0.5056733 -0.8108096 -0.30511189 -0.91405827
-0.13208167 0.06569417 -0.8618945 -0.68648726 -0.925408 0.46265998 0.44792134 -0.53277904
-0.66773576 -0.60583556 1.3044304 0.7419371 0.05037553 -0.007022763 -0.42506674 -0.086342566
0.081216894 -0.44605243 -0.13013545 0.07973808 -0.038904313 -0.31578508 -0.20194252 -0.3376991

conv2.bias f4 [16]
00000000: 6e5a 64be 5b9e 3f3f c94d 21be 5b33 a93e
00000010: 9ff4 babd ebcf c53e 0922 3a3f a415 153e
00000020: 193c d33e 985f 423f b2ba b43f 0236 a6be
00000030: 15a6 8fbf e8d3 acbe e7b4 e4be 72f7 a13d
-0.22300121 0.74851006 -0.15752329 0.33046994 -0.09128689 0.3863519 0.72708184 0.14559036
0.41256788 0.75927114 1.4119475 -0.3246308 -1.1222559 -0.33755422 -0.44669268 0.079085246

conv3.weight f4 [120, 16, 5, 5]
00000000: 9606 9fbd 3e52 91bd 6fb4 80bc a9fd 90bd
00000010: fd3f 3bbd 7c38 6dbd 7b9a 4bbc c52a f6bc
00000020: 0e76 ee3c 4ee4 9b3c a82a babb 4a12 bfbc
00000030: 94bc 17bd fac8 063d 574b c63b 36d6 46bc
00000040: 3a06 1f3d 3d35 ba3c 9990 28bd 8195 623c
00000050: 1f57 76bc 8afb 68bd e218 38bc 6062 69bd
00000060: b6eb 38bd b7a9 70bd 3baf 63bd 1232 f5bc
00000070: 2757 0bbd af92 4ebd 3669 76bd ca7b fcbc
00000080: e95c f73c e3c1 e3bc a976 e7bc 0917 85bd
00000090: e4bd e0ba 96bf 753d 8f32 9bbc 6ab3 953c
000000a0: b5d7 003d 0180 60bd 02e1 2cbc 3f82 6abd
000000b0: df43 69bd a4f1 72bb a7dd a4bd 7c2c 7fbd
000000c0: fa60 19bd f2d1 82bd 816e 843c 88ba 923b
000000d0: dd67 65bc 8034 18bd e930 c23c 0bd4 053d
000000e0: 55f2 a8ba 0776 05bd ea60 223d 820f 2fbd
000000f0: 5143 583c 6624 cc3b 1313 18bd fe04 4cbd
00000100: 39d9 15bc ac0e 6c3c bc15 31bd 0daf debc
00000110: f857 593c d314 3b3d 65f0 03bd 3306 3fbd
00000120: 49c6 efbc e9a3 813c e6c7 3a3c e307 18bb
00000130: ab51 93bd 55ba bb3b 32fe 1cbc 6243 18bd
00000140: 7b48 d5bc fc40 24bc 727e 42bc 4fc8 9d3c
00000150: 5279 0ebd 0fc3 ac3c 8885 f43c eb85 e6bc
00000160: 1ef6 cd3b 6f66 2abd 7b58 81bd 5949 143b
00000170: c56e 6bbd 29f5 92bd f6fe d03c ddf1 33bc
00000180: d1ef 4dbc ef70 10bd 21c2 9bbd 8d60 a9bc
00000190: e9f2 0dbd 6034 31bd e939 aabc 8be3 34bd
000001a0: 2510 dfbc 344e e5bc 3d6b d13b 8526 123d
000001b0: e300 103c e5da 2abd 643b 043d dc0f b33c
000001c0: 16c3 86bc 30d1 21bd 82a6 56bb ded8 fbbc
000001d0: 0934 1abd cb15 49bc 45fd 0dbd e122 84bc
000001e0: bb44 bd3b 6fd3 8e3c 6443 73bd 940a 51bd
000001f0: b465 063d a217 41bd 494f 383d e31e a23c
00000200: 151c 07bd d3b3 15bd 7010 3ebd 9595 e3bb
00000210: 65bb 79bb 33b7 483c d4f4 58bd 0b54 a83c
00000220: 2da8 d53c 0872 a23c cb4d 7dbd 14a9 ca3c
00000230: 52e3 61bc 4fa6 333c 72d5 4bbd 333c 1f3a
00000240: c9f6 a43a b17e c0bc 2a9c e6bb 6c62 78bc
00000250: b021 d2ba 9e48 b83c d8ee 25bd b565 c6bd
00000260: 7c2d 46bc 4933 7dbd 8e7f 59bd 9bdb 01bd
00000270: 6477 a6bb da68 48bd 9aed 1e3c f118 4e3c
00000280: effa fdbc 4e04 813c 0399 fbbb e77b e0ba
00000290: fc62 2e3d ea33 54bd 63d9 debc ea28 acbb
000002a0: b388 3dbd 391a 5cbc b145 1fbd 5ad4 82bd
000002b0: 48af 6abc 2ce8 8abd 7438 53bd 61ab d53c
000002c0: 6d9e 0cbc 764f 04bc a8af 74bc dad4 143d
000002d0: 7f7e e93c b126 193d dd25 673b 0499 07bc
000002e0: 4440 b3bc 27bd ad3c a986 b1bc 80f1 21bd
000002f0: a363 af3c 65d4 ed3c 08ee d4bc 5e9e d5bc
00000300: d9b6 f0bc 45c7 503b bef4 1b3d ca37 79bc
00000310: af74 323d 7fb5 8e3b dace 053d a55a 9ebc
00000320: fbff 11be 8a3d 06be 40db febd d06e 01be
00000330: 3546 3abe 4b2d 23be 3592 00be 41bb cabc
00000340: 5415 c1bd 33c9 c8bd 6103 3dbd 07cb 6bbd
00000350: 3812 833c 6929 68bd 116f 55bb efbe 873c
00000360: c8be 65bd 551e 26bd 5527 c23b 7ede 88bd
00000370: 9330 43bd 6b8b 6fbd 6406 a7bd 3af2 84bd
00000380: bf12 e6bd 2dd9 f4bd ea26 e1bd e698 95bd
00000390: bc7a fcbd 3163 02be 7aff a2bd a2b0 09be
000003a0: 2858 8abd 4a66 98bd 7594 83bd eb2e 6fbd
000003b0: 4786 51bd 78af 173c c3e7 33bd 81be bfbc
000003c0: 28a2 083d ea50 983c 98d3 673c 8402 973c
000003d0: 5d3b dabc a9e9 6dbd fc0a 88bd d2bf b9bd
000003e0: e641 d1bc 63df 0dbd 6ce9 65bd d5e4 f9bb
000003f0: 56f8 873c 11dc 9d3b e4d6 863c 67cf b0bd
-0.07764928 -0.070957646 -0.015711037 -0.07079632 -0.04571532 -0.057915196 -0.012426968 -0.030049691
0.029109027 0.019029763 -0.0056813546 -0.02332415 -0.037045076 0.03290651 0.0060514617 -0.012136033
0.038824297 0.022730464 -0.041153524 0.01382959 -0.01503542 -0.05688051 -0.011236401 -0.056978583
-0.045146666 -0.058755603 -0.055587035 -0.029931102 -0.03401866 -0.050432857 -0.06015893 -0.030820746
0.03019567 -0.027802413 -0.028254824 -0.06498534 -0.0017146436 0.059997164 -0.018945007 0.018274028
0.031455714 -0.054809574 -0.010551693 -0.05725312 -0.056949493 -0.0037070299 -0.08050089 -0.062298283
-0.037446 -0.063877 0.016165974 0.0044778027 -0.014001814 -0.037159443 0.023704963 0.032672923
-0.0012889603 -0.032583263 0.039643206 -0.0427394 0.013199643 0.006229925 -0.037127566 -0.04980945
-0.009146028 0.014407795 -0.04323362 -0.02718308 0.013265602 0.045674156 -0.03221168 -0.04663677
-0.029269354 0.015825229 0.011400199 -0.002319806 -0.07193311 0.0057289996 -0.009582089 -0.037173636
-0.026035538 -0.010025259 -0.011870967 0.019260554 -0.03478367 0.021089105 0.029848829 -0.028140029
0.006285443 -0.041601595 -0.063157044 0.0022626726 -0.057478685 -0.07175667 0.0255122 -0.010982958
-0.012569384 -0.035263952 -0.076053865 -0.020675922 -0.034655485 -0.04326284 -0.020779567 -0.044162314
-0.027229378 -0.027991392 0.0063909576 0.035681266 0.008789274 -0.04171266 0.0322832 0.021858148
-0.016450446 -0.039506137 -0.0032753055 -0.030743059 -0.03764728 -0.012273262 -0.034665365 -0.016129913
0.0057760156 0.017434804 -0.05939044 -0.05103548 0.032811835 -0.04714168 0.044997487 0.019790119
-0.032985765 -0.036548447 -0.046402395 -0.006945322 -0.003810608 0.012250709 -0.05296786 0.020547887
0.026081169 0.019829765 -0.061841767 0.024738826 -0.013787108 0.010964944 -0.049764104 0.0006074339
0.0012585755 -0.023497911 -0.007037659 -0.015160184 -0.0016031768 0.022495564 -0.040510982 -0.09687368
-0.012095805 -0.061816487 -0.05310016 -0.031703573 -0.0050801504 -0.04892812 0.009700203 0.012579189
-0.031003444 0.015749123 -0.0076781525 -0.001712677 0.042574868 -0.05180732 -0.027203267 -0.005253901
-0.046272945 -0.013433986 -0.038884822 -0.06388159 -0.014324017 -0.067825645 -0.05156751 0.026082696
-0.0085826935 -0.008075586 -0.014934458 0.036335804 0.0285027 0.037390415 0.003527037 -0.008276228
-0.02188123 0.021208359 -0.021670656 -0.039536953 0.021409815 0.029031942 -0.025992408 -0.026076492
-0.029384064 0.0031857055 0.0380752 -0.015211055 0.04356831 0.004355132 0.032667972 -0.019330332
-0.14257805 -0.13109413 -0.12444162 -0.12639928 -0.18190844 -0.15935247 -0.12555774 -0.024747493
-0.09427896 -0.09804001 -0.0461458 -0.05756667 0.015999898 -0.056680117 -0.0032567421 0.016570536
-0.056090146 -0.04055627 0.005925099 -0.06683062 -0.047653746 -0.05848257 -0.08155516 -0.064915136
-0.11234044 -0.119554855 -0.109937504 -0.07304554 -0.12328097 -0.12733151 -0.079588845 -0.13446286
-0.06755096 -0.07441385 -0.064248 -0.058394354 -0.051153447 0.009258144 -0.043922197 -0.023406269
0.03335777 0.01859327 0.014149569 0.018433817 -0.026639635 -0.058084164 -0.0664272 -0.0906979
-0.025544118 -0.034636866 -0.05613081 -0.007626156 0.016597908 0.0048174937 0.01645989 -0.08633309

conv3.bias f4 [120]
00000000: 2831 763b 0b5a 1b3e 7f76 abbd a931 223e
00000010: c78f a5bd cb07 7b3d ad05 f1be 3de0 5a3e
00000020: 4cc1 bfbe 87d0 a7be 29f0 babc 88ac af3d
00000030: 648d 1b3e 5f70 61bd 53d2 febe 3a57 86bd
00000040: ccec efbe f9af 06be e48b aabd 63cf 223e
00000050: 74b1 f8bc 8a85 a6bd 02a6 013f a7d9 97be
00000060: 9a5c debe aa26 11be ddf4 af3e 0f8d 63be
00000070: 2a43 c0be f19a 94bf b6e5 55bd aa83 9bbd
00000080: 89aa c9bb 1cd4 163f 7e1b 4ebc 988b ca3e
00000090: 525e 25be 1ae8 153f 1e23 6abf 1436 c7bd
000000a0: 7544 a2bd 90d9 333f 6037 f0bc 6610 813e
000000b0: 9267 863d 0485 22be 5fa8 b0bd 9310 3b3e
000000c0: b419 7ebf 9a19 3d3f 64e3 8ebe b897 5cbf
000000d0: 24e8 a8be bda5 ddbd e2fd 1f3f 176e cfbd
000000e0: 6a06 ccbd ef9c d3be 6e1e 143e 1e05 693e
000000f0: d21a c8bd 27f1 aebe 01d4 513e f78d c2be
00000100: dd6b adbd 96ed 1bbe 2b82 3abd 2128 d2bd
00000110: 2cfc 1bbf 2167 07be 5cb8 cdbc 782d b6bc
00000120: e5d6 7abd f88d 50bd 28f3 3dbf 1360 15be
00000130: 0864 d6bd ee27 c13e 728d a93e b49b c3be
00000140: 1206 3ebe ede9 06bf 4d4e 743d c6dd 99bb
00000150: ce1f 5fbf 9868 bb3d dab4 6e3c e915 00be
00000160: a4ad 3dbe cf32 90bd 9619 db3e 7cc3 f0bc
00000170: 51a4 50bf a3d3 18be 082f 533e 8292 7fbd
00000180: cf22 a5be 9bda 28bf adc5 953e 4661 da3d
00000190: 6b48 51bd 1414 833d d36d aebe 5991 95be
000001a0: a00e 0b3f e1f5 2fbe 6914 64bd ee83 45be
000001b0: bedd 1fbc 3f99 d1be 7a6b 55bd 2da6 283d
000001c0: d41c c5bd 041c d83e af02 d5bd 2a1f 93be
000001d0: 7f98 8bbe e593 81be 5335 bebe dc94 30bd
0.003756592 0.15171067 -0.08372211 0.15839256 -0.08084064 0.06128673 -0.47074643 0.21374603
-0.3745216 -0.3277628 -0.022819595 0.085778296 0.15190655 -0.055038806 -0.4976984 -0.06559606
-0.4686035 -0.13153066 -0.08327463 0.15899424 -0.030358054 -0.08130939 0.5064393 -0.29658243
-0.43430024 -0.14174905 0.34366503 -0.22221778 -0.37551242 -1.1609784 -0.052221023 -0.07593472
-0.0061543626 0.58917403 -0.012579797 0.39559627 -0.16149262 0.58557284 -0.91459835 -0.097271115
-0.079232134 0.7025385 -0.02932328 0.25207824 0.06562723 -0.15871054 -0.08625864 0.18268041
-0.9925797 0.7386719 -0.2790786 -0.86169004 -0.3298961 -0.10822628 0.6249677 -0.1012842
-0.09962161 -0.41330668 0.14464733 0.22755858 -0.097707406 -0.3416836 0.2049103 -0.37998936
-0.08467839 -0.1522735 -0.045534294 -0.1026156 -0.6093166 -0.13222934 -0.025112323 -0.022238478
-0.061240096 -0.050916642 -0.7419915 -0.1458743 -0.10468298 0.37725776 0.33115727 -0.3820473
-0.18557003 -0.5270069 0.059644986 -0.004695627 -0.87157905 0.09150809 0.014569486 -0.12508358
-0.1852327 -0.07040941 0.42792958 -0.02939009 -0.81500727 -0.14924483 0.2062341 -0.06239558
-0.3225312 -0.65958565 0.29252377 0.10663085 -0.051094454 0.06400314 -0.34068164 -0.29212454
0.5431919 -0.17183639 -0.055683527 -0.19288608 -0.009757457 -0.4093723 -0.05210445 0.041174103
-0.09624639 0.42208874 -0.104009025 -0.28734714 -0.27264783 -0.25308147 -0.37150058 -0.043110713

fc1.weight f4 [84, 120]
00000000: b467 6a3c a4c1 023e e8d6 54bd 2b24 e0bd
00000010: 8c2f 563e 70d9 0bbe 2c4c 05bf 7c08 15be
00000020: a6c0 50be ba4d 223d 1dec 15bd e8bb 2e3a
00000030: 5541 1ebe 6c3a 6c3c 81ce 16bf 6e79 e0bd
00000040: 1764 6f3e 5232 85be e0d2 e0bd 6dbd ab3e
00000050: 36ef 96be ab62 95bd 87b9 d0be ab88 a1be
00000060: b4dc 88be f452 193d c87f c1be 3656 a4be
00000070: d959 21be 4f32 a4be 77a8 34bc 433e c7bd
00000080: bb4b 273d a353 95bd 7d9b 853d 8207 02bf
00000090: 008c cebd 427d 5ebe 8aed 0abf 7c45 14be
000000a0: 47b8 97be c37a 20be b722 19bd 862b 1bbe
000000b0: ea0d 76be 78a0 0a3e c89e 15bd e847 113e
000000c0: d205 85be ce50 0b3d 24a1 993d c842 433c
000000d0: 47ac e6bd 2dc8 05be 5072 3fbe 9271 07be
000000e0: 4300 82bd 0e26 dd3d 02e6 96be 0e35 be3d
000000f0: 861c 823e b89e 96be 3c9e c4be 7fd7 173e
00000100: 4401 fabc ed62 b03d 0760 7abd fc6c 22bd
00000110: b061 053e f1a1 b2bd 2195 3abc 8f5a aabd
00000120: 2355 e83d 8fa7 883e 0f1c 06bf 2898 3ebe
00000130: 3a83 d8bd 19bd a1be 2dc7 74be 6b19 5d3e
00000140: 736c 2a3e 2071 f1be 1348 0dbe 9ca1 c43c
00000150: 8bd4 e1be db50 3bbe 7dda f4bd 27f8 d2bd
00000160: defe 6fbe 8124 c3bc 5af2 bd3d a659 e2bd
00000170: 19aa 08be a9f4 41be 0abc 46be f75d e5be
00000180: c046 f33d 36bc 81be 710a 3c3e 4f2c 843e
00000190: 9512 223d 1288 a1bd bec7 9e3d 2625 e23d
000001a0: 5b95 893d 77fc 543e 7ed7 353d 95b8 a5be
000001b0: e287 a8bd 613a 4abd 55a8 f13d 3f89 91be
000001c0: 07a2 f7be 841b 21be a3bb 863d 5560 21bd
000001d0: 660d 0cbf 8fed 6c3c 966b 96be 63ba 2f3d
000001e0: f311 913c 5a22 23bc e74b 3a3e b1df a3bd
000001f0: e0c0 d4bd bd05 b0bd 50cd e8be 8f8e 52bd
00000200: bc42 36be 54b7 86be fd72 ddbd 34de 483d
00000210: 8f1a 80be feed b3bc ed62 02bf 5574 103e
00000220: e9bb 82be 91de 703e d4a3 9fbe 0136 c13e
00000230: f15f b93c 5f5a 97bd 4340 943e 2cf6 4d3e
00000240: e7c8 32bf d043 49bd c0cf 0f3d a2df eebd
00000250: 6e17 4fbe 25bf b8be b90c 65bd a326 3b3d
00000260: 1c79 ceba 4b0d 0f3e bd95 bb3c dc48 fcbe
00000270: db5f f53d e960 aabd 7822 41be bc6e 74bd
00000280: 77a3 843e 6c91 bc3d 83e5 8c3d 3924 a8be
00000290: df43 b03e 7ccb 923d 9bec 8fbd ac65 a13c
000002a0: cb00 14be b48f 753e 0ab2 6abe 069d d2be
000002b0: afd8 a1be 94c1 b4bc ccfc 4b3e a433 67be
000002c0: 86d9 8bbd cbdc 35be 11cf 5dbe 8883 3fbc
000002d0: aa95 f1bc ee70 823d cab9 383e 145b 95be
000002e0: 753c 56bd 2fcb 733d ae2f e23c 1e97 42bd
000002f0: 8c86 d0be e8e1 12be 8946 9ebd f6df a13d
00000300: d5ef 223d 2d82 34be 0413 7fbe 44ad 7abe
00000310: 7298 f63b a086 37be 390d dabd 6b94 14be
00000320: b8bd b2bd 5cbf 503c fd2a e4bd 6696 5a3e
00000330: f160 99bd afee 39be 2964 3f3e 2017 6fbe
00000340: 6217 8dbd 01d7 8abd c481 26be 5df5 de3c
00000350: 06a9 6bbe e42e f8be e94a 873d c67b 9fbe
00000360: 3bb8 6cbd ff89 b53e 8619 c33e 347b 913e
00000370: 48a1 9d3c c5ae 743e d89b 523d 0977 363e
00000380: 3148 52be 4791 483d 8eaf 76be e45c 4d3c
00000390: 4dcd 99bc 55b5 483e cf96 8bbc ff6c 083e
000003a0: 4115 4fbe f246 a5be 5552 123d caf0 313e
000003b0: 995e 9c3d c361 e0be 6b19 7dbe 565c 06bc
000003c0: 1f8e e0bd 8d10 65be d48b bcbd 55b6 0c3d
000003d0: e866 d2bd 5a26 1ebe a4d1 70be 4d71 a83c
000003e0: 5f60 dbbd ac18 69be 5e4f cdbd 0273 bc3c
000003f0: 4bad 61be ad03 6ebc 321d 9a3c 99ef 513c
0.014306951 0.1276918 -0.051962763 -0.109443985 0.20916575 -0.13657165 -0.52069354 -0.14554018
-0.2038599 0.039624907 -0.03660213 0.00066655735 -0.1545461 0.014418226 -0.5890885 -0.10960661
0.23378025 -0.26014954 -0.10977721 0.33542958 -0.29479378 -0.0729421 -0.40766546 -0.31549582
-0.26730883 0.037432626 -0.37792802 -0.32097024 -0.1575693 -0.32069632 -0.011026493 -0.09728672
0.040843707 -0.07291343 0.06523798 -0.50792706 -0.10085297 -0.2172747 -0.54268706 -0.14479631
-0.2963278 -0.1567183 -0.037386622 -0.15153322 -0.24028745 0.13537776 -0.03652838 0.14187586
-0.25981003 0.03401261 0.07501438 0.011917777 -0.11263328 -0.13064642 -0.1869595 -0.13226917
-0.06347706 0.10798274 -0.29472357 0.09287463 0.25412387 -0.29417968 -0.38401973 0.14828299
-0.030518182 0.086126186 -0.061126735 -0.039654717 0.13025546 -0.08722294 -0.011388094 -0.08318054
0.113443635 0.26690337 -0.52386564 -0.1861273 -0.105719045 -0.31589583 -0.23904105 0.21591727
0.16642933 -0.4715662 -0.13797025 0.024002843 -0.4410747 -0.18292563 -0.11955736 -0.103012376
-0.23437068 -0.023821117 0.092747405 -0.11052255 -0.13346137 -0.18940987 -0.19407669 -0.44798252
0.11878729 -0.25338906 0.18363358 0.25815055 0.039568502 -0.078872815 0.077529415 0.11042242
0.067179404 0.20799433 0.044394962 -0.32367387 -0.082290426 -0.04937208 0.11799685 -0.28425023
-0.48365805 -0.15733153 0.065787576 -0.03939851 -0.54707944 0.014460935 -0.29378957 0.04290236
0.017708754 -0.0099569205 0.18193017 -0.0800165 -0.103883505 -0.085948445 -0.4546914 -0.051405486
-0.17798895 -0.26311743 -0.10812948 0.049040034 -0.25020263 -0.02196407 -0.509322 0.14106877
-0.2553399 0.23522402 -0.31179678 0.37736514 0.022628756 -0.07390284 0.28955278 0.20113438
-0.698378 -0.049136937 0.035110235 -0.11663748 -0.20223781 -0.36083332 -0.055920336 0.045691144
-0.0015752646 0.13969915 0.02289855 -0.49274337 0.119811736 -0.083192654 -0.18860805 -0.059675917
0.25905964 0.092074245 0.068797134 -0.32840136 0.34426782 0.07167718 -0.07027551 0.019701801
-0.14453427 0.239806 -0.22919479 -0.41135424 -0.3161063 -0.022064961 0.19920653 -0.22578293
-0.06828599 -0.17760007 -0.21661021 -0.011689074 -0.02949031 0.06369196 0.18039623 -0.2917105
-0.05230375 0.059519943 0.027610626 -0.047507398 -0.4072765 -0.14343989 -0.07728297 0.07904045
0.039779503 -0.17627783 -0.24909598 -0.24480158 0.007525497 -0.17922449 -0.10647053 -0.14509742
-0.08727592 0.012740936 -0.11141012 0.21346435 -0.07489193 -0.18157457 0.18690552 -0.23348665
-0.068892255 -0.0677929 -0.16260439 0.027216608 -0.23013696 -0.48473275 0.06606085 -0.3114912
-0.057792883 0.35456845 0.3810541 0.2841431 0.019241944 0.23894794 0.051418155 0.17818846
-0.20535351 0.048966672 -0.24090406 0.012534354 -0.018774653 0.19600423 -0.017039685 0.13322829
-0.20222951 -0.3228069 0.03572305 0.1737701 0.076352306 -0.43824586 -0.24716727 -0.008200726
-0.109646074 -0.22369595 -0.092063576 0.034353573 -0.10273534 -0.15444317 -0.23517472 0.020561839
-0.10711741 -0.22763318 -0.10024904 0.023004059 -0.22038762 -0.014527244 0.01881275 0.012813472

fc1.bias f4 [84]
00000000: 3ca4 3b3e cea1 6c3e 9829 943e 3b4d 993e
00000010: ef88 b53d 61c2 b23e a3c0 813c cbf6 483d
00000020: 4a54 dabd c40a d9bb 66c1 583e d984 583e
00000030: 5035 8ebb f16d e03d 99b3 fc3d 0f3a 1d3d
00000040: ada8 42bd 9f7b 2b3e f9ed 0e3e 889c 313e
00000050: dcdb c1be 4fa1 1a3e 8b76 6fbd b112 973e
00000060: e37b 213e ab6e 7b3e f8ee 893d b3ba 7f3e
00000070: e5f4 f3be 9892 e8bc afcb 323e 3e80 423e
00000080: fac5 933e 8fd3 983d 5526 df3e c66c 9e3e
00000090: 1438 8d3e 22f2 733e c7f7 3f3e fe54 773e
000000a0: a516 b13e f762 ad3c 9bc9 123d a831 b83b
000000b0: 3bfe 523e ba42 913e 3d20 70be 7b71 a73e
000000c0: cfe5 db3e b0a8 3d3e 9e47 543e a5fb 543d
000000d0: f7ca c63d 3580 903e e9c8 1d3e 8286 503e
000000e0: 7195 a43e 2226 273e 102f d03e 41b2 e73e
000000f0: 7c1d 58be c233 783e e281 853e 7084 6c3e
00000100: 652e 173e 8a0e ea3d b010 8e3e eb0c c13c
00000110: ca22 803e 1018 9e3b a3ec 573e e8bc 213e
00000120: c3d3 2f3f 85ea c33d a23d 683d d031 9f3e
00000130: 65a5 cc3d c9d5 b83e a0ed 243d 8180 0fbe
00000140: dda7 ce3e 5a83 a83e 0907 b93e a520 763e
0.18324369 0.23108599 0.28937984 0.29941735 0.08864009 0.34913924 0.015838927 0.049063485
-0.10660608 -0.006623598 0.21167526 0.21144427 -0.0043398514 0.1095847 0.12338943 0.038385447
-0.047524143 0.16746376 0.13957967 0.17344868 -0.37863052 0.15100597 -0.05846266 0.29506448
0.15769915 0.24553935 0.06735033 0.24973564 -0.47647777 -0.028390214 0.17460512 0.18994233
0.28861982 0.074622266 0.43583933 0.30942363 0.27581847 0.23822835 0.18746863 0.24153516
0.3458759 0.021165354 0.035836797 0.005621154 0.20604794 0.2837122 -0.23449798 0.32703766
0.42948768 0.1852138 0.20730445 0.0519978 0.09706681 0.28222814 0.15408672 0.2036381
0.32145265 0.1632314 0.40660906 0.45253184 -0.21104997 0.24238494 0.26075655 0.23097396
0.14763792 0.11428554 0.27747107 0.02356573 0.25026542 0.004824646 0.21086363 0.15794718
0.686825 0.095662154 0.056699403 0.3109269 0.09992484 0.36100605 0.04026568 -0.14013864
0.40362445 0.32912713 0.3613818 0.2403589

fc2.weight f4 [10, 84]
00000000: e33b b6be 3d30 9d3e 8807 56be aa52 96bd
00000010: f899 c7bd 00be 953d b197 ebbe d1ff 2ebd
00000020: 255f 363e 7732 84be de98 c1bd 12fa 923c
00000030: 6a36 ed3d 74aa f53e 09c4 4e3e 0d52 9f3d
00000040: 6f8a c23d c7d6 b83e ba8e 123e d16a cbbe
00000050: e097 7cbd d669 aabe 4c16 a4be f99f bfbe
00000060: d555 2fbe 42f6 5f3e 379f 0fbe f561 13be
00000070: dd4f 9f3e 7e58 e93e d750 f73e 88ae 9b3e
00000080: 5b0a 93be a652 09be b268 2a3f c38c 82be
00000090: 8145 2abe 83de d33e c0f1 ee3e 430b db3d
000000a0: b920 053f 9b8c 583e 47ae 863e 5ea0 a9be
000000b0: 282c c1be 8db3 f5be c90d 7e3d 858a bf3e
000000c0: c3d0 693e 7e41 6b3b 1abf f1be 85f1 d13e
000000d0: 9c75 afbe d413 fc3e 76e6 df3e c118 82be
000000e0: ab3a 71bd 2f8d 973d bf4f 6c3f b47d 46be
000000f0: db8c bfbe d114 523e 9c8f 1f3f cdc1 9f3b
00000100: a785 153e add3 3c3f 5148 0c3f 149a a13d
00000110: bd40 16bf b016 85be 1365 c7be eb09 88be
00000120: a1b6 ec3c 2a60 403e 4942 28be 1581 a9bd
00000130: 5dfa 103f 1970 c53e 4fcc 933d a616 18bf
00000140: 8023 f53e 2329 9e3e 40c8 293f f3f1 52be
00000150: c80a 9cbe 5274 d5be 9551 acbe f749 d9be
00000160: d564 af3e d017 97be c64b a7be 2598 9ebe
00000170: 7531 ba3e 4f34 bcbd 15d2 93bd 573f 043e
00000180: 8382 1b3f 9796 71bd 5512 a5be 3cdd 52be
00000190: a07b 0f3d 657d d13e b203 1f3f 5acc 83be
000001a0: 3b31 ea3e c91a 9ebe 17fd 94be 8f76 e3be
000001b0: 942a a1be 79c8 12be 0951 943e ec6c 85be
000001c0: 7c55 82be f9c9 47bd cd0f 203f ea09 c9be
000001d0: 89fc 08be 3806 b23e c3fa c7be f45a 99be
000001e0: d6e0 80be 7d9e e83d 3d4a f6be 2e89 9abe
000001f0: 8d4b 97be 8e84 fdbe 606d 1b3d dc6c c1bd
00000200: f09e e9be 0307 4c3d 7e8d 873e bbc0 333f
00000210: a6c4 87be e476 af3e fb7f e7be c1a8 173f
00000220: 1fcf cabe d31e c1be e428 febe 3baa 2fbe
00000230: e342 96be a772 373e 68a3 a2be 01dc 373e
00000240: 18d1 ad3c 2338 31be b29f 693e a572 043f
00000250: fcd9 d33e 1fba 213f d1c0 67be 1d5c e8bd
00000260: f127 cfbe f39f 9bbd cd1f f8be e829 b4be
00000270: bb04 083f 21bd 013e cf2b 993e c7f6 18bf
00000280: 082c b93d 1f96 b5be 6627 58be db61 06bf
00000290: 8341 18bf b722 ac3e c50e 14bf 5722 603e
000002a0: ee3c 2c3f 46c1 01be ddba efbe 329a 403f
000002b0: 4f79 303e df60 4b3f 22fa 14bf 33df f63e
000002c0: 8fbe 61bd 73cc a3be a688 65be eff6 2ebe
000002d0: 4507 e83e f96a 0c3f 44bc d9be f82e 063f
000002e0: 9b25 4e3e 0e78 b1be 9eb9 813d c31c 18bf
000002f0: beef 493e f048 13bf 8a34 91be 875f d3be
00000300: 97db b0be 0911 a73e cb8f 6bbe afdf 9ebe
00000310: 3726 d33e ccae a73e 8cae e33c 3388 aabe
00000320: 3f02 973e c14e b43e 8c28 1b3f b6a3 65bb
00000330: 11f4 d3bd a5ab 4ebe 8932 20bd 28a2 8fbe
00000340: d7e0 1d3f 1756 623f e578 86be 8cd2 d6be
00000350: 8d93 f1bd 03f0 623e 6f2f 6bbd ece8 2e3e
00000360: dadc 623e 8181 3ebe cb6b e3be a39e be3e
00000370: cfe6 06bf 2957 653e c9ec f13e 52cc 143f
00000380: 5f8f d03e bd88 303e 117f 1e3f 940b ee3d
00000390: 920b e0bc c330 3b3e c49f a1bd c96e c2bd
000003a0: b7ea d03e 47cf 49be 00d0 0b3f c50f aa3e
000003b0: 9110 65be 60ff 88be 290a 453e 52c4 523f
000003c0: 14ea a83e 7bae aebe 70db 2a3e e9f8 583f
000003d0: b725 593d 0245 37bc b420 c8be 482a 8f3e
000003e0: 3b38 473e 86e5 99be bdff 243f 6edd 8ebe
000003f0: 5623 10bf cc0d 1cbe 7e88 84be f74b e0bb
-0.35592565 0.30700865 -0.2090131 -0.07339986 -0.09746164 0.0731163 -0.4601417 -0.042724434
0.17809732 -0.25819752 -0.09452985 0.017941508 0.11582644 0.47981608 0.20191969 0.07779322
0.0949906 0.36101362 0.14312258 -0.39729932 -0.061668277 -0.3328387 -0.3204826 -0.37426737
-0.17122586 0.21871284 -0.1402558 -0.14392836 0.31115618 0.45575327 0.48303863 0.30406594
-0.28718838 -0.13410434 0.66566 -0.25498018 -0.16628076 0.413807 0.46668816 0.106955074
0.52003056 0.21147387 0.26304838 -0.33130163 -0.37729 -0.4798855 0.062024865 0.3741037
0.22833543 0.003589719 -0.4721611 0.41004577 -0.34269416 0.49233878 0.43730515 -0.2540951
-0.05889384 0.073999755 0.9230918 -0.1938389 -0.37412152 0.20515753 0.62328506 0.004875398
0.14601766 0.7376049 0.54797846 0.07890716 -0.5869253 -0.25993872 -0.389443 -0.26570067
0.028895678 0.18786684 -0.16431536 -0.082765736 0.56632024 0.38562086 0.07216703 -0.5940956
0.47878647 0.3089076 0.6632118 -0.20600109 -0.30476975 -0.41690308 -0.33655992 -0.42439243
0.34256616 -0.29510355 -0.32674998 -0.30975452 0.36365858 -0.091896646 -0.07217804 0.12914787
0.6074602 -0.058981504 -0.3224055 -0.20592207 0.035030007 0.4091598 0.62115014 -0.25741845
0.45740685 -0.3087981 -0.29099342 -0.4442639 -0.31477797 -0.14334287 0.28968075 -0.26059663
-0.25455844 -0.0487766 0.6252411 -0.39265376 -0.13377585 0.3477037 -0.39058504 -0.29952204
-0.25171536 0.11358354 -0.48103514 -0.30182785 -0.29549828 -0.49515194 0.037946105 -0.094445914
-0.45629072 0.049811374 0.26475137 0.7021596 -0.26517218 0.34270394 -0.4521483 0.59241873
-0.39611146 -0.3771883 -0.49640572 -0.17154782 -0.29347906 0.1791483 -0.31765294 0.17955019
0.021217868 -0.1730657 0.22814825 0.51737434 0.41377246 0.63174623 -0.22632147 -0.11345694
-0.4046016 -0.07598867 -0.48461762 -0.35188222 0.5313222 0.12669803 0.29916236 -0.5975155
0.090416014 -0.35466096 -0.2110878 -0.52493066 -0.5947496 0.33620235 -0.57835037 0.218881
0.6728047 -0.12671384 -0.46822253 0.75235283 0.17233776 0.7944469 -0.5819417 0.48217162
-0.05511337 -0.3199192 -0.22415408 -0.17086385 0.45318046 0.5485073 -0.42526448 0.5241542
0.20131533 -0.34661907 0.06334232 -0.59418887 0.1972036 -0.5753317 -0.28360397 -0.4128382
-0.34542534 0.32630184 -0.23004071 -0.31030032 0.41240093 0.32750547 0.027793191 -0.33307037
0.294939 0.35216334 0.60608745 -0.0035040206 -0.10349286 -0.20182665 -0.039110694 -0.28053403
0.61671203 0.8841261 -0.2626411 -0.4195751 -0.11795721 0.2216187 -0.057418283 0.1708104
0.2215456 -0.1860409 -0.44418177 0.37230405 -0.52695936 0.2239653 0.47250965 0.5812427
0.40734383 0.17239662 0.6191264 0.11623302 -0.027349267 0.1828032 -0.07891801 -0.09493787
0.40804073 -0.19707976 0.5461426 0.33215156 -0.22369601 -0.26757336 0.19242157 0.8233081
0.32991087 -0.34117493 0.16685271 0.84754807 0.053014483 -0.011185886 -0.3908745 0.27961946
0.19455044 -0.30057925 0.64452726 -0.27903312 -0.5630392 -0.15239638 -0.25885385 -0.006844993

fc2.bias f4 [10]
00000000: 3166 dc3e 129d 93bf 32dd 2d3f a0df 5c3f
00000010: c669 533f 7545 9cbf 9760 f03e 4bbe d6bd
00000020: 6cb4 1cbf 4cbf 9abe
0.43046716 -1.1532309 0.6791564 0.86278725 0.8258327 -1.2208697 0.46948692 -0.10485514
-0.612128 -0.30224073
